nina_model.pth (torch, 342562 bytes, 99 tensors)

embed.weight f4 [25, 32]
000000 f7 12 16 3f 8f 15 a8 3f 2d 06 51 be 45 f6 13 40
       0.5862269 1.3131579 -0.20412512 2.311906
000010 b6 67 c2 be 97 81 2d bf bf be 90 bf ef 6d 0f bf
       -0.3796975 -0.67775863 -1.1308211 -0.5602712
000020 04 80 90 3d b8 10 da 3f f6 84 84 bf 56 db c1 bf
       0.07055667 1.7036352 -1.0353076 -1.5145061
000030 aa eb e7 be 5d c1 eb 3e a7 d7 93 bf 19 3a 7c bf
       -0.45296985 0.46045962 -1.1550187 -0.9852615
000040 06 64 30 be cd d7 98 3f 51 08 b6 3f 95 e2 4d 3f
       -0.17225656 1.1940857 1.4221288 0.8042386
000050 95 91 99 be 68 0a 84 3f e1 14 65 bf 7c 6c eb 3f
       -0.29993883 1.0315676 -0.89484984 1.8392482
000060 d2 3f 00 bf 1b f6 41 be 12 c1 7a be 41 89 2e 3e
       -0.5009738 -0.18941538 -0.24487713 0.17044546
000070 9c c6 bb 3f 0c 55 8e 3e 28 8a f7 bf 0e be b8 3f
       1.4669986 0.2779926 -1.9339037 1.4433
000080 d3 0e 8c 3f e8 7e 38 3f 8f 5f 9b 3e 2a ca d5 be
       1.0942024 0.72068644 0.30346343 -0.417558
000090 d8 21 63 3e ae 1e a4 be 4f 8b 65 be 3e 26 ea 3e
       0.22180879 -0.32054657 -0.22416423 0.457323
0000a0 b3 fb 81 be a4 0d 6d bf 0b 72 fe bf b6 ee 8f 3f
       -0.25387344 -0.9259894 -1.9878553 1.1244724
0000b0 ec 71 96 3e 60 01 08 40 7d b3 09 bf c8 e8 91 bf
       0.2938379 2.125084 -0.537895 -1.1399164
0000c0 ea 53 b4 3f ab 59 15 3f f2 a4 3b 3f 54 78 79 3f
       1.4088109 0.5833995 0.7329856 0.9744923
0000d0 84 41 24 bf a6 eb 03 bf b8 21 ab bf c9 15 a7 bf
       -0.6416247 -0.51531446 -1.3369665 -1.3053523
0000e0 8d 4d 23 3f a6 ad 95 3e db c6 01 c0 2c 76 97 3f
       0.6379021 0.29234046 -2.0277622 1.1832938
0000f0 3a bd 89 3f 17 aa e4 be b8 4f bb bf 65 a4 9f be
       1.0760872 -0.44661018 -1.4633703 -0.3118011
000100 5b 29 2a 3f 66 b1 76 3f 61 ff 86 bf df a3 fd 3f
       0.66469353 0.9636444 -1.0546685 1.9815634
000110 e0 67 f1 3e 4b 6f 59 3f 1e dc 8b 3e ef c2 84 3f
       0.47149563 0.84935445 0.27316374 1.0371989
000120 f0 c6 ae be 2f b9 db bd 38 3a ba 3f 9d 1c 99 3e
       -0.34136152 -0.1072868 1.4549017 0.29904643
000130 e9 90 a7 3e 22 d7 b1 3f 18 94 8d 3f 39 b6 1a 3f
       0.32727745 1.3893778 1.106082 0.604343
000140 56 d4 31 3f 0e 6b 32 be 55 89 ac bf be 47 0d bf
       0.69464624 -0.1742365 -1.347941 -0.55187595
000150 62 7b 40 bf ab 0d 55 3f 64 c7 08 bf e3 1e 62 3f
       -0.7518827 0.8322398 -0.53429246 0.8832838
000160 4a e3 9c bf db 25 22 40 3e ab 98 3e 15 8f 89 be
       -1.2256863 2.5335605 0.29818147 -0.26866975
000170 32 f5 90 bf 56 7b c1 bf ae 56 d8 bf 9f e0 27 3f
       -1.1324828 -1.5115764 -1.6901453 0.6557712
000180 04 75 44 3f a9 de 7d bf 3a b4 0e bf 15 2b f6 bd
       0.7674105 -0.9916788 -0.55743754 -0.12019936
000190 55 ba 82 3f aa a9 b0 3f 38 da fb 3f 1d f0 60 3f
       1.0213114 1.3801777 1.967597 0.87866384
0001a0 85 58 c1 3f 67 4a a1 bf 1e 77 6a bf b0 a0 2d 3d
       1.5105139 -1.2600831 -0.9158801 0.04238957
0001b0 cc 95 5d 3f 91 0b bf be 45 95 c7 bf af 46 70 bf
       0.86556697 -0.37313512 -1.5592428 -0.93857855
0001c0 b1 c0 56 bf 49 c0 83 3f 9d 4a 91 bf f9 b7 5c bf
       -0.83887774 1.0293056 -1.1350895 -0.8621822
0001d0 b1 11 32 3e 9c c7 05 bf de 7b af bf 8a 98 85 3f
       0.17389561 -0.52257705 -1.3709676 1.0437176
0001e0 84 87 21 40 1d 05 87 3f 5f 1d dc 3f 29 93 eb 3f
       2.5238962 1.0548435 1.7196463 1.8404285
0001f0 db 29 05 bf 5a ce 11 40 92 69 a0 3e b0 7c b3 3f
       -0.5201699 2.2782197 0.31330544 1.4022427
000200 0a 8f aa be e3 27 c4 3e 9c c8 92 3e 59 3a 3b bf
       -0.33312255 0.3831168 0.28668678 -0.73135906
000210 ba 78 3e bf f5 6a b8 3e ac 72 80 bf 25 47 ed bd
       -0.74402964 0.36019102 -1.0034995 -0.11585835
000220 59 43 71 3f 43 7d af bf 02 9d 1d bf f9 da 65 be
       0.9424339 -1.3710102 -0.615677 -0.22446813
000230 e0 05 26 bc dd b4 5e bf 54 3b 62 3f c9 77 e8 bf
       -0.010133237 -0.86994725 0.8837178 -1.8161556
000240 18 4c 3e bf d2 20 b1 bf d5 d3 b3 3f 32 b3 79 3c
       -0.7433486 -1.3838141 1.4049021 0.015240477
000250 90 27 6a 3f 2d dd 5d 3f 44 52 80 3e 4b 62 73 bf
       0.9146662 0.8666561 0.25062764 -0.9507186
000260 03 b0 00 c0 76 c9 75 3f f0 38 fb be 43 0e 29 3f
       -2.010743 0.9601053 -0.49066877 0.66037387
000270 4e 80 c4 bf df cc c5 3f 2c 3f a2 3f 3f b0 55 be
       -1.5351655 1.5453147 1.2675529 -0.20868014
000280 f9 f8 d0 bf 80 65 9d bf 8d 25 08 be 22 04 4d bf
       -1.632598 -1.22966 -0.13295574 -0.8008443
000290 8f ea b6 be 2a f3 14 3d 45 e4 50 3c e2 72 a4 3f
       -0.3572583 0.03636471 0.012749736 1.284756
0002a0 7e ac a8 3f 30 aa af 3f 00 c5 b5 3d e1 ff eb 3e
       1.317764 1.3723812 0.088754654 0.46093658
0002b0 d6 9d a1 3f 35 78 8c be e7 db d6 3f 8b fb 78 3f
       1.2626293 -0.2743546 1.6785859 0.97258824
0002c0 74 78 38 3f 50 57 4d bf c3 e8 c9 3e 14 51 d9 be
       0.72058797 -0.80211353 0.39435396 -0.4244467
0002d0 64 7b 9d 3d 6e 9d 53 be 77 54 94 3f 35 d8 7d bf
       0.076895505 -0.20665523 1.1588277 -0.9915803
0002e0 b5 2e 8b be a6 7e 9a be 53 54 84 bf e6 82 24 bf
       -0.27184072 -0.3017475 -1.0338234 -0.64262235
0002f0 9b 02 f5 3e 6d 82 e2 bf 05 5f de bd 72 04 c4 be
       0.4785355 -1.7696053 -0.10857967 -0.38284642
000300 a0 81 7b 3f 8d 52 05 3f 23 1f 95 be 6d 8e 20 be
       0.9824467 0.5207909 -0.29125318 -0.15679331
000310 22 1e 91 bf 2b 12 31 3f 2b bf 69 bf 47 c5 80 3f
       -1.1337321 0.6916835 -0.91307324 1.0060204
000320 45 16 bb 3f 49 9d c9 bf 71 65 c4 3e 3b 20 59 bf
       1.4616171 -1.5751125 0.38358644 -0.84814805
000330 90 c7 cf bb 6c c3 b7 3f 23 bb b4 3b dc 95 8c 3f
       -0.0063409284 1.4356513 0.0055154725 1.0983233
000340 78 89 0b bf a2 c9 c0 bc d9 01 c3 3c e5 ab 54 3f
       -0.54506636 -0.023533646 0.023804592 0.8307479
000350 b2 7c eb bf b2 24 ee 3e 10 d8 96 3f 8c 34 1f 40
       -1.8397429 0.4651237 1.1784687 2.4875822
000360 f5 01 ca bf 3b 3f 9c 3d 7d eb c1 bf af 51 ae 3e
       -1.5781847 0.07629248 -1.514999 0.34046695
000370 b0 8f 4a bd 43 a3 c2 be fe 73 2e 3d 43 42 c3 3f
       -0.049453437 -0.38015184 0.042591088 1.5254596
000380 a4 9c d2 3f b8 58 b5 3e 86 9c 88 3f 89 bf 51 3f
       1.6454053 0.3541925 1.0672767 0.81932884
000390 a5 c0 95 3e b7 2d 5a bf a6 83 c0 3e d9 e0 2c bf
       0.2924854 -0.85226005 0.3760044 -0.6753059
0003a0 6f 31 b5 3e ce 7c cd 3f cd 5c 81 3f ce c5 45 bf
       0.35389277 1.6053712 1.0106446 -0.7725495
0003b0 c4 14 82 bf 0f 0e ac 3e 51 6c 8f 3f 5d 83 59 3f
       -1.0162587 0.33604476 1.120493 0.8496607
0003c0 44 7f 49 bf 5f 78 ba bd 34 81 de 3f ca 16 13 3f
       -0.78709817 -0.0910499 1.738318 0.5745665
0003d0 cc b9 04 be 1f 07 19 bc 94 cd 4f bf 48 33 0a bf
       -0.12961501 -0.009340077 -0.8117306 -0.539845
0003e0 f5 47 23 be 93 7c d3 3e af 5c 42 3f a5 4a 77 3f
       -0.15945418 0.4130598 0.75922674 0.96598274
0003f0 dc 0e 04 40 7f 68 15 3f 8c cf b6 be 1c 03 82 3f
       2.063407 0.58362573 -0.3570522 1.0157199

blocks.0.attn.q.weight f4 [32, 32]
000000 60 ea b5 bd 2a 3c 43 be 6e 67 d7 3b e5 5c 9f bd
       -0.08882594 -0.1906592 0.006573609 -0.0778139
000010 c3 e0 d0 bc 3a 8c 55 bd e2 d7 27 bc f9 79 57 be
       -0.0254978 -0.052135684 -0.010244342 -0.21042623
000020 44 3a 56 3e a1 5b 79 3e 82 69 22 3e f1 59 a7 3c
       0.20920664 0.2435136 0.1586056 0.02042863
000030 1e 9d 21 bd fa 66 e8 3d b8 9f d0 3d 78 c9 d3 bd
       -0.03945648 0.11347766 0.10186714 -0.103411615
000040 43 fe f1 bb 41 55 a0 bc 7b f4 3c be e4 ba b6 3c
       -0.0073850467 -0.019571902 -0.18452637 0.022305913
000050 99 8c 65 3e 2f 11 36 bd f2 6f 48 be 26 91 b8 3d
       0.22416915 -0.04444998 -0.19573954 0.0901206
000060 cf fe 00 3e b1 b2 6e bb d3 7d be 3c 3f ed 0c be
       0.12597202 -0.0036422426 0.023253357 -0.13762377
000070 43 bd 95 3d 5c 72 66 3d db 19 41 3e 42 db 18 3d
       0.073114894 0.056261405 0.1885752 0.037318476
000080 59 cd f7 3c ff 73 36 bd 3b 9f 5a 3e 25 e0 9f bd
       0.030249285 -0.044544216 0.21349804 -0.07806424
000090 c4 ca b0 bd 21 23 bf bd 37 00 dc bd 9e 08 3e bd
       -0.086324245 -0.09332872 -0.107422285 -0.046394937
0000a0 c3 be f0 3c 0c 0f bf 3c 18 07 9d 3d 81 09 5e be
       0.029387837 0.023322605 0.07667369 -0.21683313
0000b0 ce 24 3d be 11 3c d1 bd f1 df 04 3e c4 f2 9d bd
       -0.18471071 -0.10216535 0.12976052 -0.077123195
0000c0 32 3b 52 be bc 9c 11 be 72 23 05 3e 0a e1 3c bc
       -0.20530394 -0.14219946 0.13001803 -0.011528263
0000d0 e3 87 a8 bd 70 8d d5 bc 3d 2c f8 bb 79 49 bf 3d
       -0.08229043 -0.02606842 -0.007573633 0.09340186
0000e0 fa 25 f7 3d 0f e5 a6 bd 1b f9 5a be 80 27 37 be
       0.1206779 -0.08149158 -0.21384089 -0.17886162
0000f0 d1 15 9e bc ec 34 35 3e 98 50 c5 bc 19 33 56 3d
       -0.019297512 0.1769597 -0.024086282 0.052294824
000100 0b a8 e2 3d 5d cf e2 3d 0a e2 81 3d 36 40 cb bd
       0.11067208 0.11074708 0.06341942 -0.09924357
000110 6e 72 23 3e 82 95 fa 3d 34 0e e5 bd be f3 e9 bd
       0.1596162 0.122355476 -0.1118435 -0.11423443
000120 b5 9f 90 bd 84 37 6c 3d 72 7f 18 be 0b be 03 be
       -0.07061712 0.05767013 -0.14892367 -0.12865464
000130 4d f0 8d bd d0 d6 5f bd c1 a8 2f 3e f2 dc e3 bd
       -0.06930599 -0.05464822 0.17154218 -0.11126126
000140 39 87 c4 3d 8a 7c 96 bd da 80 04 3e 2c c3 ee 3b
       0.09596104 -0.07347973 0.12939778 0.00728645
000150 27 45 ef 3c d1 a4 69 bd f1 35 c6 bd 11 33 99 3d
       0.02920778 -0.057041947 -0.09678257 0.07480443
000160 b5 03 1a be 4b 39 4a bd 53 01 fb 3d a0 f0 fb bd
       -0.15040477 -0.049371045 0.12256112 -0.12301755
000170 21 98 8c 3d 2e 92 cc bc 67 37 01 3e c6 cc bb bd
       0.06864954 -0.024972048 0.1261879 -0.09169917
000180 d6 17 81 3d ba f3 da 3d cd 9d 26 3d e6 c3 65 3c
       0.063033745 0.106910184 0.040677834 0.014023757
000190 65 87 2a be ac 87 fe 39 ab 06 16 be 2c 98 3e bd
       -0.16653211 0.0004854774 -0.14650981 -0.04653184
0001a0 79 f4 ab 3d c4 6a f8 3b fc 58 2d 3e 9b 9d 1d be
       0.08396239 0.007581087 0.16928476 -0.15392153
0001b0 44 c9 81 3c cc be 25 be f0 23 7f bd b3 81 18 be
       0.015843041 -0.16186064 -0.062290132 -0.14893226
0001c0 d4 59 39 3e f3 af aa 3d cb d5 17 be 47 6b a3 bd
       0.18100673 0.08334341 -0.1482765 -0.07979446
0001d0 33 8e a6 3d 8c 99 32 3d 66 4f eb bd 19 d2 00 be
       0.08132591 0.043603465 -0.114897534 -0.12580146
0001e0 cc 92 3e 3c 5e 11 c5 bc 6b 8d c1 3d cc c3 a1 3d
       0.011631679 -0.024056133 0.094508015 0.078986734
0001f0 ce 59 ae 3c 9f 01 3d 3e 7b 3e 3f be fa c2 2d 3e
       0.021283057 0.1845765 -0.18676178 0.16968909
000200 ff 58 ad bd aa cb 08 3c 5c 44 64 3e 78 3d ea 3d
       -0.0846424 0.008349339 0.22291702 0.114375055
000210 04 ad b3 3c 5d 4f 42 3e 80 32 38 3e ac c9 24 3d
       0.021933086 0.18975587 0.17988014 0.04023139
000220 9b 90 15 be 48 46 bc bd 55 56 31 3e 5a 4b 4c be
       -0.14605944 -0.091930926 0.1731809 -0.1995062
000230 d4 b3 03 3e e1 2f c0 bd 2e f4 aa bd e3 32 95 3d
       0.12861568 -0.09384132 -0.08347355 0.072850965
000240 0c 9e a9 3d eb d5 07 be 48 b2 31 3e 43 4c be 3d
       0.08282098 -0.13265197 0.17353165 0.092918895
000250 bd 47 85 3d 5f 85 2e 3d bb 54 4c bd 7f 6e 75 bd
       0.065078236 0.04260766 -0.049885493 -0.05991983
000260 6e 52 45 bd b8 bf 57 3d 70 88 d5 3d 97 45 4c 3b
       -0.048174314 0.05267307 0.10426414 0.0031169408
000270 3d ab 17 be 5c 9e 9e bd 4f f4 3d 3d 38 79 aa 3d
       -0.14811416 -0.077450484 0.04637557 0.08323902
000280 dc 79 05 be 98 6d 1a 3d 58 94 97 3d ae 26 a0 3d
       -0.13034767 0.037702173 0.07401341 0.078198776
000290 5f 72 aa bd 4a 04 03 3c 0e 9d 31 be 4f 82 48 3d
       -0.08322596 0.007996628 -0.17345068 0.048952397
0002a0 4e 93 b3 3d cc b0 06 3e 2e 92 79 3d ff 71 1a bd
       0.087683305 0.1315338 0.060930423 -0.03770637
0002b0 f1 f2 78 be d4 d2 08 3e 53 ba 2c 3e c0 12 15 3e
       -0.24311425 0.13361675 0.16867952 0.14557934
0002c0 3f e2 4f bd a4 dd 49 3e 84 96 86 bd bc 37 52 bd
       -0.050752874 0.19713455 -0.06571677 -0.051322684
0002d0 37 c8 b9 bc dd 99 98 3d fe 34 10 3e 75 81 6b 3c
       -0.022678478 0.07451222 0.14082715 0.014374127
0002e0 f2 d1 0c bd ca ab 95 bd 06 45 ef 3c fc c4 1c be
       -0.034379907 -0.07308157 0.029207718 -0.15309519
0002f0 26 b2 3d bb 5a a2 07 be ca 1c be bd 8d 43 80 3d
       -0.0028945296 -0.13245526 -0.09282835 0.06262884
000300 9a 01 5f bd be 85 db bd 16 1d d1 3a 2c 36 5a 3d
       -0.054444887 -0.10718869 0.0015954103 0.05327432
000310 a3 89 be bc 8d 56 85 3d 62 2c 87 3d 84 e6 15 be
       -0.02325899 0.06510649 0.06600262 -0.14638716
000320 40 db d6 bc d9 20 73 3d 16 6d 07 3e 4f 2c 02 3d
       -0.026227593 0.059357498 0.13225207 0.031780537
000330 a5 c7 be 3d c5 ab 32 be c2 1e 54 bd 8b ab 88 bd
       0.09315423 -0.17448337 -0.051787145 -0.06673344
000340 38 96 e3 bc 33 fe 18 be e2 c4 c1 3d a9 c1 12 be
       -0.02778159 -0.1494072 0.094613805 -0.14331688
000350 b8 bd dd bd 9d 44 d4 3c 27 e9 30 be 8e df 4e bd
       -0.108272016 0.025911624 -0.1727644 -0.050506167
000360 0c 2c 03 be 37 2e 12 be 03 04 c6 bc 37 34 9c 3d
       -0.12809771 -0.14275442 -0.024171835 0.07627147
000370 63 4f ea 3c dd c1 46 be a1 f0 2e be 9a 0d c4 bd
       0.028602308 -0.1940989 -0.1708398 -0.09572907
000380 5c d4 8a bd 2f 46 6a bd f5 d7 1e be 61 d0 47 be
       -0.067787856 -0.05719584 -0.15512069 -0.19513084
000390 13 af e2 3d 8b e6 bc bd 20 d3 b7 bd ac c0 15 be
       0.11068549 -0.0922366 -0.08975816 -0.1462428
0003a0 11 0b 9b 3d 11 0f 09 3e 9d d6 19 3d 50 c0 91 3d
       0.0757047 0.13384654 0.037558187 0.07116759
0003b0 c7 24 a3 bd 2f f2 e6 3d fd ec a8 bd 3b b2 e6 3d
       -0.07965999 0.112766616 -0.08248327 0.112644635
0003c0 21 c5 b8 bd ba 28 80 bd 8c 09 56 3d 95 7e 6a be
       -0.09021974 -0.06257768 0.0522552 -0.2289985
0003d0 33 05 33 bd 64 ca df 3d ad 89 8a bd f5 5a d9 bd
       -0.04370613 0.10927275 -0.06764541 -0.10613052
0003e0 bd 00 e8 3d b2 91 d8 bd fb bc 07 3e 0a 7e 3e 3b
       0.11328266 -0.10574664 0.13255684 0.0029066824
0003f0 ac 8e 59 3d 61 32 0b be c5 0a 54 3e 02 e3 9a bd
       0.053114578 -0.13593437 0.20707233 -0.075628296

blocks.0.attn.q.bias f4 [32]
000000 30 4c 01 be 8e 85 de 3d d5 31 a8 bd 86 e8 af bd
       -0.1262672 0.10865317 -0.0821263 -0.08589272
000010 f1 8b 24 3e f2 62 f3 bd 4d 43 4a 3e 70 80 99 3c
       0.16069008 -0.11884107 0.19752236 0.018738002
000020 a4 64 f3 3d 37 61 03 be 36 70 01 3e 09 26 3f be
       0.1188443 -0.12830053 0.12640461 -0.18666853
000030 a5 cf 10 be 3a 04 e1 bd 21 52 4d 3c 80 8b 42 3e
       -0.1414171 -0.10987134 0.012531788 0.18998528
000040 b0 18 cc 3d 99 85 7b 3d 7e 60 18 be 9b d6 c0 3c
       0.09965646 0.061406706 -0.14880559 0.023539832
000050 c9 5c 43 bd 1b 3b 8b bd 05 0c 35 be 75 6b 57 bd
       -0.04769591 -0.06798383 -0.17680366 -0.052592713
000060 8b 74 c9 bd ee 68 93 3d df 8d 29 3e 27 c7 b7 3d
       -0.09836682 0.07197748 0.16558026 0.08973532
000070 f0 5f 00 be f8 25 a6 3d 43 fc 27 3e 53 b6 92 bd
       -0.12536597 0.08112711 0.16404824 -0.07163682

blocks.0.attn.k.weight f4 [32, 32]
000000 9b e5 9d bd 1e fc da 3d 00 32 f6 3c 7c 5f d5 bc
       -0.077098094 0.10692619 0.030053139 -0.026046507
000010 d7 b9 21 3d 58 11 64 be 52 47 8f bd a8 a8 8b 3d
       0.03948387 -0.22272241 -0.06996025 0.06819278
000020 cf 5a 18 3d d1 55 0a ba 92 d6 23 be 9b 0a 46 bc
       0.037195977 -0.000527707 -0.15999821 -0.0120874895
000030 75 de 8f bd 20 52 7e 3c 7c 24 af bd 49 29 54 3c
       -0.07024852 0.01552251 -0.08551881 0.012949296
000040 b8 f6 88 3d 44 cb ba 3d ec e6 21 be 35 25 01 bd
       0.06687683 0.09120801 -0.15810746 -0.031529624
000050 35 77 f5 3d b1 47 2f be ba 35 3d be af 08 12 be
       0.119856276 -0.17117192 -0.18477526 -0.14261125
000060 ea ce d0 bb 77 45 10 be 72 ae 3d bc 41 4e 84 3c
       -0.0063723223 -0.14088999 -0.011577236 0.016150596
000070 43 d2 65 3d 67 3a 55 bd 90 65 3b bd 42 20 c8 bd
       0.056108724 -0.05205765 -0.045751154 -0.09771778
000080 5c 9c 70 3b b1 1f ca bd 6c d7 71 3d d9 00 19 3e
       0.0036714291 -0.09869326 0.059043333 0.1494173
000090 cc 17 0a 3e ca a4 48 3e 5b a1 bb bd 8d 5b f9 bd
       0.1348564 0.19594112 -0.091616355 -0.12175665
0000a0 2a 40 2b bc b0 54 f5 bd ed 7b be 3d df aa 62 bc
       -0.01045231 -0.119790435 0.09300981 -0.013834684
0000b0 d5 84 d3 bc a8 1a 3f 3d a0 0f c8 3d 01 2d 06 3e
       -0.025820175 0.04665628 0.09768605 0.13103105
0000c0 b5 e5 9d bd 39 76 18 be 3e 43 2f 3e 72 74 03 3e
       -0.07709829 -0.14888848 0.17115495 0.12837389
0000d0 bd c1 e7 b9 4c 2f 32 be 5d bb 24 3c 10 a1 fb 3d
       -0.000442041 -0.17400855 0.0100544365 0.122865796
0000e0 9f b8 06 be 91 a9 6a 3d d6 eb 8e 3d ec 68 a6 bd
       -0.13156365 0.057290617 0.06978576 -0.08125481
0000f0 cb 29 4e bd f4 9f f3 bd d5 da d9 3d 34 d4 e4 bd
       -0.050332826 -0.11895743 0.10637442 -0.11173287
000100 2b 5a eb bd 31 9c c2 3d 31 e8 aa 3d 06 e2 27 3e
       -0.114918076 0.095024474 0.08345068 0.16394815
000110 50 85 26 bd 58 cd eb 3d 51 35 f7 3d 8f b5 1e 3d
       -0.04065448 0.115137756 0.12070716 0.038747367
000120 06 34 f0 bd 44 ad 3f be b2 6a e8 bc f2 d2 0f 3d
       -0.11728673 -0.1871844 -0.028371189 0.035113283
000130 0a 58 25 3e ab 33 17 3e 99 e6 63 3d 07 da 6f bd
       0.16146865 0.14765804 0.055639837 -0.058557536
000140 7d 80 47 3d b7 cd 3f be 48 26 e5 3c 38 a0 02 3e
       0.04870652 -0.18730818 0.027972355 0.12756431
000150 01 b6 3c 3d 97 8c 1f 3e aa a1 4e 3e 5c d9 a4 3d
       0.04607201 0.15580975 0.20178857 0.080492705
000160 2b 85 93 3d cc 1f 73 bd 1a 0b 1f be 3e 66 ee bc
       0.07203134 -0.059356496 -0.15531579 -0.029101487
000170 55 2a ba 3c 4e e9 53 bd d2 4d 95 3d cf b2 2b be
       0.022725264 -0.05173617 0.07290234 -0.16767429
000180 01 a7 02 3e 36 aa d0 bc 7f 3c 88 bd 02 bc d4 3d
       0.1275902 -0.025471788 -0.06652164 0.10387422
000190 f5 40 bd bd 09 7f 11 3d 52 60 00 3e 98 8a 22 3e
       -0.09240905 0.03552154 0.12536743 0.15873182
0001a0 cd 84 96 bd 97 e8 f5 bd 6a c8 66 3c bf 47 68 3c
       -0.073495485 -0.120072536 0.014085868 0.014177262
0001b0 2d 5d 8c 3c 15 e1 22 3d ae d7 0e 3e 61 3f 1d 3e
       0.017134273 0.039765436 0.13949463 0.15356208
0001c0 54 db 78 3c 5b bb 48 3d cb 89 2d be a4 94 3a bd
       0.015189011 0.0490068 -0.16947095 -0.04555191
0001d0 ae c0 fb bd 01 49 42 bd 45 16 e0 bc 00 eb 50 3d
       -0.1229261 -0.047432903 -0.027354369 0.051005363
0001e0 3b fa 1c 3e d9 90 91 3d 5b df 3c 3c 86 01 77 3b
       0.1532983 0.071077056 0.0115278615 0.0037690117
0001f0 b2 f7 cd 3c 45 0d 4e be 8c d7 50 3e 29 23 b7 bc
       0.025142524 -0.2012225 0.20394725 -0.022355633
000200 06 0c 50 3e 96 6d f2 bd 3d 16 b9 bd 31 64 12 bd
       0.20317087 -0.11837308 -0.09037445 -0.03574008
000210 c4 e5 36 be cf 3a a9 3c 3c 05 46 3e b5 79 41 be
       -0.17861086 0.020657925 0.19337934 -0.18894084
000220 60 38 be 3d 7c ef 22 3d e4 07 d5 bc 70 56 5d 3d
       0.092880964 0.03977917 -0.02600474 0.05403751
000230 c9 a6 21 be 21 31 42 3e 72 35 98 3d 3c 5d 29 be
       -0.1578628 0.18964054 0.07432069 -0.16539472
000240 0c 3f a5 3d 41 c3 b6 bd 40 3f a1 3b df 40 46 3e
       0.08068666 -0.089239605 0.00492087 0.19360684
000250 b3 f4 48 be f5 8f 40 be 9e 12 e7 3d 83 61 0e bd
       -0.19624595 -0.18804915 0.11282848 -0.034760963
000260 aa 8c 3e be 04 94 12 3e a9 d6 a7 3d a0 d8 b9 bd
       -0.18608347 0.14314276 0.0819524 -0.09074521
000270 62 72 14 bd b1 5c e9 bd c4 f1 4b be 3f 39 5a bb
       -0.036241896 -0.113946326 -0.19916445 -0.0033298281
000280 25 49 a3 39 af 66 27 3d 4d 36 22 3d 6c e0 fb bd
       0.0003114428 0.04086941 0.039602567 -0.122986645
000290 63 f8 c3 3d 40 15 7f bd 1b 3d a5 3c 06 a2 35 3e
       0.095688604 -0.062276125 0.020170739 0.17737588
0002a0 ca e4 81 3d fe ee 3d be bc ac d3 bd ff bc 12 bd
       0.06342466 -0.185482 -0.10335681 -0.035824772
0002b0 3b d7 fd 3d 2d 42 d4 bd 75 47 fd 3d 43 6a a1 bd
       0.123945676 -0.103641845 0.12367145 -0.07881596
0002c0 fb 81 f5 bd 8e 5a ed bd 9b 79 ae bd 62 27 2b 3d
       -0.119876824 -0.115895376 -0.08519288 0.041785605
0002d0 c6 35 87 3d 72 f6 1c be 7d b9 f1 bd 39 30 b5 3d
       0.06602053 -0.15328386 -0.11802957 0.08847088
0002e0 e4 83 d0 3d 16 66 c6 bd 9d c1 26 3e 71 87 5e bd
       0.10181406 -0.0968744 0.16284795 -0.054328386
0002f0 c6 66 3d bd 67 8b 34 3d c7 55 c9 ba e4 c5 87 3c
       -0.04624059 0.044078257 -0.0015360647 0.016573854
000300 4c 34 97 bc 6c 86 ac bd 0b 0a 65 3d 9f f0 78 bd
       -0.018457554 -0.084240764 0.05591778 -0.06077635
000310 3e bb 8b 3d 04 dd 35 3e 6a 2b a1 bd 9f 2e 4b bb
       0.06822823 0.17760092 -0.07869609 -0.003100313
000320 33 ff b5 3d ce d9 44 be ab 2b 03 3e 1a ee fd bd
       0.08886566 -0.19223711 0.12809627 -0.1239893
000330 23 3e bb 3c 6f 0b 24 3e 16 58 b1 3c 85 e8 ee bb
       0.022856778 0.16019987 0.021648448 -0.007290902
000340 84 72 09 3e 7c 3f a6 3d d8 53 ca bc 22 01 f4 bd
       0.1342259 0.081175774 -0.024698183 -0.119142786
000350 74 d5 08 be 36 d2 40 bc a5 81 3f bd 7f a3 98 bd
       -0.13362676 -0.011768868 -0.046754498 -0.074530594
000360 26 77 9f bd 9a 84 15 3e ea 29 01 be 6a 8e b8 bd
       -0.07786398 0.14601365 -0.12613645 -0.09011538
000370 ef c9 0b be 0d 41 df 3d 7c 14 ce bd a4 25 b9 3d
       -0.1365125 0.10901079 -0.10062501 0.090403825
000380 6d 5c e7 bd 50 66 da 3d 7b e4 19 bb 1b 3a f1 bd
       -0.11296926 0.10664046 -0.0023482132 -0.11778661
000390 07 c1 94 3a 7b f2 6d be 77 ff 58 be 1d 8c 64 be
       0.001134903 -0.2323703 -0.21191202 -0.22319074
0003a0 88 91 6f 3c bc 44 50 3e 00 cd bb bd 15 a9 50 bd
       0.0146221 0.2033872 -0.0916996 -0.0509425
0003b0 fb 4e a1 3d 1c 4f 89 3b 6f 57 f8 bb 78 b7 ef bd
       0.078763925 0.004190339 -0.0075787823 -0.11704916
0003c0 04 5b 92 bd 8d 0e c8 bc 3f f5 0a be 8c 61 3c be
       -0.07146266 -0.024421 -0.13570116 -0.18396586
0003d0 1f 49 b5 3d 24 a4 97 bd c4 4f 74 3d 3f cc 06 bd
       0.08851837 -0.07404354 0.059646383 -0.032909628
0003e0 a3 b5 a8 3d 0e 77 09 be d6 37 8e bd 01 1d de 3c
       0.082377695 -0.13424322 -0.069442436 0.02711344
0003f0 bd a9 1f 3e 76 95 26 bd da 19 0d 3e ca cd 44 3e
       0.15592094 -0.04066988 0.13779393 0.19219127

blocks.0.attn.k.bias f4 [32]
000000 ef 7d 83 bd 1f 4c 03 be c3 35 b6 3d 24 ab df 3d
       -0.06420504 -0.12822007 0.08896973 0.10921314
000010 30 cb 30 3b 60 44 39 3e d1 f8 0e be 7c 22 b7 bd
       0.0026976578 0.18092489 -0.13962103 -0.08942124
000020 3a bd ca 3d cd d4 cc bd c4 4c f1 3b af 9f ca bd
       0.09899373 -0.10001526 0.0073638875 -0.098937385
000030 e8 49 17 3c cd 75 a5 bd 43 32 05 be 84 0d d6 bd
       0.009233929 -0.08079109 -0.13007455 -0.10451797
000040 ba 39 87 bd 70 da 02 be 80 e8 33 3e 3c 97 02 be
       -0.06602807 -0.1277864 0.1756916 -0.12753004
000050 36 26 13 3d 7a 28 a2 3d 36 a6 85 3d eb c2 65 bd
       0.035925113 0.079178765 0.06525843 -0.05609409
000060 3c a7 1a 3e 87 98 53 bd 68 3c 41 be 48 27 ee bc
       0.15102857 -0.051659133 -0.188707 -0.029071465
000070 6d 09 19 3e 85 10 04 bd fb c4 2e 3e 9b bf 35 be
       0.14945002 -0.032242317 0.1706733 -0.17748873

blocks.0.attn.v.weight f4 [32, 32]
000000 95 b7 40 3e 0a 38 1c 3e b7 48 30 3e b9 91 a3 3d
       0.18820031 0.15255752 0.17215239 0.07986779
000010 dc ac 0b 3c 43 c1 b8 bd 9c e2 22 be 96 77 4c bd
       0.0085251 -0.09021237 -0.15906757 -0.049918734
000020 5f 55 f5 3d ac 0c 03 be 0e bc d0 bc 07 fe 45 be
       0.11979174 -0.12797803 -0.025480296 -0.19335185
000030 35 5b 25 bd d1 c4 e7 3d a5 d1 90 bd af db f4 bd
       -0.040370185 0.113168366 -0.070712365 -0.11955964
000040 30 a4 10 3d 2a 38 61 3d 05 76 89 bd 16 f9 0b be
       0.03531283 0.054985203 -0.067119636 -0.13669237
000050 07 7f 57 be 07 07 e1 bd 86 fd 59 bd e8 15 55 bd
       -0.21044551 -0.109876685 -0.053220294 -0.052022845
000060 a7 12 85 3d da 77 46 3d c2 46 1a 3e a2 07 b9 3d
       0.06497698 0.048454143 0.15066054 0.09034659
000070 eb 1d f6 3d b8 41 22 bd 71 c8 d8 3b 69 9a 3b 3c
       0.12017425 -0.039613456 0.0066156914 0.0114503885
000080 31 9b bd bb 6c 41 e5 bd 7c 4b 5f 3d 69 45 44 be
       -0.0057863225 -0.11194119 0.054515347 -0.19167103
000090 cd d6 4c 3e 15 0c 03 3e a9 f5 73 bd c2 3a 2a be
       0.20003815 0.12797578 -0.05956045 -0.16623977
0000a0 b3 10 ad bd ee 8a 15 be 35 a2 d7 bd db ec 85 3e
       -0.08450451 -0.14603779 -0.105289854 0.2615727
0000b0 c3 82 b1 bd c2 fd 4d bc 1d 93 0b 3d 40 db 12 3d
       -0.08667519 -0.012572708 0.034075845 0.035853624
0000c0 40 20 1a 3e 2e 48 03 be 32 46 93 bd b1 33 61 3d
       0.15051365 -0.12820503 -0.07191123 0.054980937
0000d0 fe b5 4a 3e 08 b4 b3 bd 0c f9 6f 3c 64 5c 39 bd
       0.19795987 -0.087745726 0.01464678 -0.045254126
0000e0 98 57 d2 bd b2 5c 9d 3d 95 fb 58 3c 4a 07 58 3e
       -0.102706134 0.07683696 0.013243576 0.2109653
0000f0 54 c8 cf 3c 0a 47 f2 bc f0 2b 4b 3c 1d e9 9b 3d
       0.025364079 -0.02957489 0.012400612 0.07612822
000100 a5 ba 0f 3e f0 06 5f bd 55 16 ef 3b 2f f0 d5 bd
       0.14036043 -0.054449975 0.0072963634 -0.10446202
000110 92 a2 a6 bc 1e b9 0a be e0 16 6b bd 67 1c 10 3e
       -0.020341191 -0.13547179 -0.057394862 0.14073335
000120 2a aa 39 be e5 fd 40 be e4 3a a6 3b 1d c9 6f bd
       -0.18131319 -0.18846853 0.0050729383 -0.058541406
000130 ff 6c 30 3d 80 e7 0f be 92 1f b4 3d d1 ee 12 be
       0.043072697 -0.14053154 0.08795084 -0.14348914
000140 92 aa d3 bd fc 1c ad 3d eb 19 4a 3e 25 c6 28 3d
       -0.10335268 0.08452794 0.1973645 0.04120459
000150 2f aa 3c be 81 f4 11 3e 59 3b de 3d 31 23 0a 3e
       -0.18424295 0.14253427 0.108511634 0.13489987
000160 64 4e 4f be 7a 7d 16 3d 0c 79 08 3d ce 27 32 be
       -0.20244747 0.036740758 0.033318564 -0.17397997
000170 d7 53 3d bd 84 d0 f2 bd 8a 24 db bc eb 53 93 bd
       -0.046222534 -0.118561774 -0.026750822 -0.071937405
000180 c5 bb 13 3e 0f d3 32 3d 03 93 be bb b9 bb 30 be
       0.14427097 0.043658312 -0.005815865 -0.1725911
000190 af 44 6d be e7 39 01 3e 79 c3 d6 bd d5 a8 ef 3d
       -0.23170732 0.12619744 -0.10486502 0.11702124
0001a0 46 d4 be 3d 28 b4 49 be 99 cd cd 3d 8c 19 14 be
       0.09317832 -0.1969763 0.1004898 -0.1446287
0001b0 3b a0 b2 3d d6 62 f2 3c 02 04 1d 3e c2 ff 46 be
       0.08721968 0.029588144 0.1533356 -0.19433501
0001c0 83 9d 1c be 28 74 25 be 0b ee ea 3d 1c 62 fb 3d
       -0.15294461 -0.16157591 0.11471184 0.12274572
0001d0 76 af 3f be 70 f4 1e 3d bd 98 05 be 8b 95 91 bd
       -0.18719277 0.038807333 -0.13046546 -0.07108601
0001e0 35 cf 48 bc ab 39 31 3e 53 f1 fc 3d 29 62 9a bc
       -0.012256433 0.17307155 0.123507164 -0.018845635
0001f0 fa 8c 14 be 7c b5 d9 bd e5 cd f1 3d f6 f0 8d be
       -0.14506903 -0.106303185 0.118068494 -0.277229
000200 a8 e5 0d 3e 1d 62 16 3e ee ec a6 bd 49 06 81 bd
       0.13857138 0.14685865 -0.081506595 -0.06300027
000210 a8 73 7e 3d 81 92 03 be 33 b2 33 be 58 67 f2 3d
       0.062122017 -0.12848856 -0.17548446 0.118361175
000220 92 46 3f 3e 23 f9 24 3e 83 68 7e 3d 03 40 c5 3d
       0.18679264 0.16110663 0.06211139 0.0963135
000230 e2 75 b6 bd 42 fe 16 3e 84 ce 4d be 48 ca 9e 3d
       -0.08909203 0.14745429 -0.2009831 0.07753426
000240 1b 33 de 3d 32 a7 33 3e 02 f1 4d bc c7 2c 81 bd
       0.10849591 0.17544249 -0.012569668 -0.06307369
000250 53 59 1e 3e b4 16 38 be a6 67 5c bc 1e 47 35 3c
       0.15463762 -0.1797741 -0.013452446 0.011064319
000260 5c 89 36 bd 52 23 15 be 0c 7e f8 3d 74 81 cd bd
       -0.04456459 -0.14564255 0.121334165 -0.10034457
000270 bf 7b d0 bd 47 01 c2 3c 54 5a 00 3d 5b 6b 0d 3e
       -0.10179853 0.02368225 0.031336144 0.13810484
000280 33 5c bb bd 3f 34 a4 3d b8 20 0a 3e a2 6b f6 bc
       -0.09148445 0.08017778 0.13489044 -0.03008062
000290 df 4a 92 bc dd 77 9a bd 59 de 8a be d3 fd 5c be
       -0.017857967 -0.07542393 -0.27122763 -0.21581201
0002a0 10 ce e6 bc 61 84 d4 3d 0f 6a ca bc 71 9f 32 3b
       -0.02817443 0.10376812 -0.024708776 0.002725568
0002b0 a0 38 1e 3e b4 a9 19 be 20 d4 e8 bd 32 e5 12 3d
       0.15451288 -0.15006143 -0.11368585 0.03586311
0002c0 a1 ba 19 3e 4b 5c 94 3d a2 bf 3a 3d 64 57 bc bd
       0.150126 0.07244166 0.04559291 -0.09196356
0002d0 a7 8c 95 3d 63 86 50 be 51 b8 24 be 20 b6 02 3e
       0.07302218 -0.20363764 -0.16085936 0.12764788
0002e0 12 44 55 3e 03 98 78 be 61 ac f4 bd 11 4a db bd
       0.20826748 -0.24276738 -0.11946941 -0.107074864
0002f0 53 a3 60 3d 7f e9 04 3e 28 cc dc 3d f1 62 95 bd
       0.054843258 0.12979697 0.10781127 -0.07294262
000300 ca c5 1a bd 9f b8 a4 3d 42 4b f6 bd f1 e1 30 3e
       -0.037786283 0.08043026 -0.12026073 0.1727369
000310 10 59 39 be e9 e3 37 3d 27 01 12 3e 31 78 64 bc
       -0.18100381 0.044895086 0.14258252 -0.0139446715
000320 d9 89 d6 3d 65 37 14 be 92 9c 2a 3e 9f 2a da 3d
       0.10475511 -0.14474256 0.1666129 0.106526606
000330 6a a7 43 bd 86 98 04 3d ed 0a 32 3e 82 85 49 bd
       -0.04776708 0.03237202 0.1738698 -0.04919959
000340 de d7 80 3c a9 5f 07 3c 8d 86 56 bd 51 c4 31 3e
       0.015727933 0.008262553 -0.05237441 0.17360045
000350 28 ba e7 bd 4d fa 69 3d e6 75 21 3d 74 57 1b be
       -0.11314803 0.05712347 0.039419077 -0.1517008
000360 e5 9f 6e be b5 9b 19 3e 64 cf ce 3d a4 ed 25 be
       -0.23303182 0.15000804 0.1009815 -0.16203934
000370 32 3a 0f bd 22 9f db bd 06 3f 65 bc 8a 26 c4 3d
       -0.03496761 -0.107237116 -0.013992077 0.09577663
000380 98 18 bb bd 7d 1d 9d 3d 15 9f 16 bd 44 ec 15 3e
       -0.0913555 0.0767164 -0.036772806 0.1464091
000390 d3 69 77 bd 17 91 ca bd 79 54 0d 3e 3a 32 ce bd
       -0.060403656 -0.09890955 0.13801755 -0.10068174
0003a0 ee 88 80 bd 36 3c f4 bd cc d2 21 bd 0c 16 f6 3d
       -0.06276117 -0.11925547 -0.039507672 0.12015924
0003b0 0b 77 19 3d 32 56 1f 3e bc f7 20 be 99 af 2a 3e
       0.037467044 0.15560225 -0.15719503 0.16668548
0003c0 0d 0c 11 3e 05 76 07 3e 69 07 09 be bc c7 93 bd
       0.14164753 0.13228615 -0.13381733 -0.07215831
0003d0 82 05 a3 bd d1 19 1c 3e 18 78 84 3d 70 c6 a4 3d
       -0.07960035 0.15244223 0.064682186 0.080456614
0003e0 73 fd a1 bd 38 d1 1a 3c 29 50 3a 3d 00 ae 73 3d
       -0.0790967 0.009449296 0.045486603 0.05949211
0003f0 0d 9b 28 be b3 d8 67 ba 48 79 01 3e 09 5a 35 be
       -0.16465397 -0.00088442414 0.12643921 -0.17710127

blocks.0.attn.v.bias f4 [32]
000000 16 1a 81 bd 5a 60 12 3e 6c b9 07 3e c4 03 05 be
       -0.063038036 0.14294568 0.13254327 -0.12989718
000010 7b 32 d1 bd 24 bc ef bd 43 0e 36 be 76 b5 8e 3d
       -0.102147065 -0.11705807 -0.17778878 0.06968205
000020 69 69 be 3d 6f 53 c6 bc 07 18 af bc 6f 20 de 3b
       0.09297449 -0.024209706 -0.021373762 0.0067787687
000030 18 6a 2f 3d 2b f2 07 3e 49 ab cc 3d 2c 42 04 be
       0.04282579 0.13275973 0.099936076 -0.12915868
000040 ed b9 44 be 31 5b c7 bd 17 5e 38 3e aa fb 86 3c
       -0.1921155 -0.0973419 0.18004642 0.016477425
000050 51 89 00 3e 27 cc a3 3d bb eb ce 3d 5b 98 41 bd
       0.12552382 0.07997923 0.10103556 -0.047264438
000060 87 e1 eb bd 79 36 a9 3c 01 b5 0a 3d 52 27 04 3e
       -0.11517625 0.020655857 0.033864025 0.12905625
000070 2d 39 66 bb 28 45 de bd 99 dd 95 3d b8 91 22 be
       -0.0035129294 -0.10853034 0.07317657 -0.158759

blocks.0.attn.out_map.weight f4 [32, 32]
000000 90 56 0b be 60 57 90 3d 0c a5 dd bd 4b 3f b1 3d
       -0.1360724 0.070479155 -0.10822496 0.0865465
000010 55 28 be bc ca f2 a9 3d 1b 67 86 3d d5 f2 14 be
       -0.023212591 0.082982615 0.065626346 -0.14545758
000020 7b 0c 27 be 5f 51 26 be bd 05 10 3e 8e cd 17 be
       -0.16313355 -0.16241978 0.14064689 -0.14824507
000030 f6 a1 c3 3d 37 7f 2d 3d 5f 3f b9 bd a3 6e 47 3d
       0.09552376 0.04235765 -0.0904529 0.048689496
000040 b5 8e e9 3c 0f 4d 11 3e a5 0b 0d be 39 99 16 be
       0.02851043 0.14189552 -0.13773973 -0.14706887
000050 e3 97 60 bd d7 02 96 3d 2c 28 27 3e a8 7f 81 bd
       -0.05483235 0.073247604 0.16323918 -0.063231766
000060 f2 95 08 3e 2f f6 dd bc 2e 05 82 3d b9 fd ba bd
       0.1333845 -0.027094929 0.06348644 -0.09130425
000070 85 e1 0e be 63 2a 4a bd 11 2c ef 3d 03 71 33 3c
       -0.13953216 -0.04935683 0.11678327 0.010952237
000080 d1 05 d9 3c 07 0e 2f bd a5 95 08 be 6e eb 36 3d
       0.026492031 -0.042737987 -0.13338335 0.044658117
000090 df ab e3 3b 88 79 c2 3d 67 b3 8a 3d b6 fc bc bd
       0.006947979 0.094958365 0.067724995 -0.09227888
0000a0 7a a1 aa bc ff 88 1e bd cb e2 97 3d 4f 54 41 be
       -0.020828951 -0.03870487 0.07416304 -0.18879817
0000b0 11 ef f0 3d 1f 9e 40 3e 43 38 80 3c 21 80 00 be
       0.11764348 0.18810318 0.015651828 -0.12548877
0000c0 4a fb e5 3c 9d f5 0f 3e 90 40 29 be 64 54 88 bd
       0.028073926 0.14058538 -0.16528535 -0.06656721
0000d0 13 7e 6b bd 81 2e f9 3d 3c 8b 5e be 5f c8 1e bd
       -0.05749328 0.12167073 -0.21732801 -0.038765308
0000e0 46 2c 32 be cb c1 79 3d 03 f8 99 3d 7b 37 60 3d
       -0.17399701 0.06097583 0.075180076 0.05474041
0000f0 27 df 8a 3d 33 05 23 3d 59 a1 39 3e 76 ec b9 bd
       0.06780844 0.03979988 0.18127955 -0.090783045
000100 e6 bf bf bd 3c eb f7 bd d9 92 24 be 79 a9 32 3d
       -0.093627736 -0.12105414 -0.16071643 0.043618653
000110 d2 10 ba 3d 1b 6c 25 3e 46 ff 65 bd c7 c8 01 3e
       0.090852395 0.1615452 -0.05615165 0.12674247
000120 5e f2 58 3d 3c ae 8e bd 23 56 3b 3e 21 9d 0c be
       0.052965514 -0.06966826 0.18294577 -0.13731815
000130 4d 0a 16 bd d4 12 60 be c9 72 16 3e 45 97 90 3d
       -0.036630917 -0.21882182 0.14692225 0.070601024
000140 b4 0d 62 3e 68 ac d6 bd d4 01 f0 bc 70 d0 a2 3d
       0.2207554 -0.10482103 -0.029297747 0.079499125
000150 21 b4 05 be 9f 88 0a bd 64 a7 1c 3e 2e c4 b3 3d
       -0.13056995 -0.0338217 0.1529823 0.08777653
000160 53 1b 10 bd e6 c4 bf bd ad f9 1f 3e 7a 60 82 3d
       -0.03518231 -0.09363727 0.15622588 0.06366058
000170 58 a3 8d bd 1c 15 85 bc e4 7f 7b bd f7 d6 0d bd
       -0.06915921 -0.016245417 -0.061401263 -0.034628835
000180 92 5e fd bb cd b9 7e 3d 78 cb e4 3d bc f8 3a 3e
       -0.007732221 0.062188912 0.11171621 0.18258947
000190 03 f2 f5 3c b6 da 1d bd 8a f2 99 bd ed 46 af bd
       0.030022627 -0.038538657 -0.07516964 -0.0855845
0001a0 9f 5b 3e 3e 6a 3d 0a be 02 c3 38 3e c3 3e 08 3e
       0.18589638 -0.1349999 0.1804314 0.13305192
0001b0 64 dd 6f 3d 9c 5c 58 3e b3 c0 ab 3b 78 44 2c 3d
       0.058560744 0.21129078 0.0052414774 0.042057484
0001c0 ea 04 e4 3d 1e 93 da 3d d2 51 14 3e 96 e2 cf 3d
       0.1113375 0.106725916 0.14484337 0.1015064
0001d0 71 f1 1a 3e c1 96 29 3e 03 46 06 be a1 11 02 3d
       0.15131165 0.16561414 -0.13112645 0.031755093
0001e0 ba ac c1 bb 5b a2 c8 bb a1 ed cd bd 8c 7e fc bb
       -0.005910483 -0.00612287 -0.1005509 -0.0077055153
0001f0 10 19 39 be 5a a9 e6 bd dc 04 94 3d 96 77 01 3e
       -0.18075967 -0.1126277 0.07227489 0.12643275
000200 2b bf 62 3d c0 f8 0b 3e 1b 11 7e 3c 53 44 e3 3d
       0.055358093 0.1366911 0.015507008 0.11097016
000210 95 60 cd 3d 34 bc d2 3d 76 bd 2c be e9 7b d0 3d
       0.10028187 0.10289803 -0.16869149 0.10179884
000220 b1 8c 46 3a 23 74 80 3d 73 f6 3f 3e de d4 db 3d
       0.0007574065 0.06272151 0.18746357 0.107339606
000230 ba 96 81 bc 5f 7d 32 be 79 a6 47 3c 30 75 d1 bc
       -0.015818942 -0.17430638 0.012185686 -0.025568575
000240 ee 2f 1e be 39 21 bc bb f9 db 98 bd 05 f2 81 3d
       -0.15447971 -0.005741265 -0.074638315 0.0634499
000250 65 e5 27 be 7f 62 84 bd cb 38 af bd aa 4c 93 bc
       -0.16396101 -0.06464099 -0.08555754 -0.017980892
000260 34 ea d8 3d 4a 8c 1d 3e de 5f c1 3d 85 e4 4e 3d
       0.10591546 0.15385547 0.09442113 0.050510902
000270 f9 1e 1e bc 0b 88 de 3d da 7d 3e bd 98 46 42 3e
       -0.009650939 0.10865792 -0.04650674 0.18972242
000280 cf 7b c3 3d 43 d0 3c 3e 96 bd c9 3d f1 85 40 bc
       0.09545099 0.1843882 0.09850614 -0.011750684
000290 ca 3a 06 3e 42 ff 8f 3d 9b 35 02 3e 21 cc 94 bd
       0.13108364 0.070311084 0.12715761 -0.07265497
0002a0 7c 4b 7d 3d 03 8d 99 3d 6f a2 94 bd 85 60 ba 3c
       0.061839566 0.07497599 -0.07257544 0.022751102
0002b0 6c 85 09 be a3 19 a7 bd a7 27 9e 3d 90 7c 3c be
       -0.13429803 -0.08159187 0.07722407 -0.18406892
0002c0 2b 03 3a 3e a0 58 58 be 90 ce 49 3d b3 2a d4 3d
       0.18165271 -0.21127558 0.04926926 0.10359707
0002d0 c7 50 ac bd f6 42 3c be de 64 22 bc d2 41 9a 3d
       -0.084138446 -0.18384919 -0.009911744 0.075320855
0002e0 2d a2 8f 3d f7 95 75 bd 1b 65 d2 3d 30 c1 e8 3c
       0.070133545 -0.05995747 0.102731906 0.028412431
0002f0 b8 85 83 3d 9e 56 b5 3d 71 a5 01 be 73 e0 d8 bd
       0.06421989 0.088544115 -0.12660767 -0.10589685
000300 0e 4b fa 3c 14 b9 bd bd e0 a3 e0 3d d7 54 53 3d
       0.030553367 -0.092638165 0.10968757 0.05159458
000310 c7 81 a3 3d a0 27 2a bc b8 82 42 3e 26 ad dc bd
       0.079837374 -0.010385424 0.18995178 -0.10775213
000320 49 b4 1c 3e 8b a0 45 3e fd 4a 27 3e 26 67 59 bd
       0.15303148 0.19299524 0.163372 -0.053076886
000330 97 e5 23 be e7 36 78 3d 7c dd c6 3d b6 4e f0 3d
       -0.1600555 0.060599234 0.097102135 0.11733763
000340 cd 72 07 be a9 c1 c1 bd d2 57 35 3e 2b 9d 1a be
       -0.13227387 -0.09460766 0.17709282 -0.15099017
000350 57 72 6a bc c1 e8 d0 bd b3 d2 46 bd 88 96 22 be
       -0.014309487 -0.10200644 -0.048540782 -0.15877736
000360 c7 eb ce 3d d7 f4 ef bd 86 34 5b 3d b4 6c f2 3a
       0.10103565 -0.11716621 0.053516887 0.0018495531
000370 4b a7 45 3e cb 7c 88 3d f8 e6 e1 3d 1f 43 b3 bd
       0.19302098 0.06664427 0.11030382 -0.08753037
000380 82 46 d1 3d e1 9e 6f 3d 49 40 20 be 0c f3 3c 3d
       0.102185264 0.058501128 -0.15649523 0.046130225
000390 9b 8d 73 bd c5 85 52 bd d7 70 a0 3c db fc b2 bd
       -0.059461217 -0.051397104 0.019585056 -0.087396346
0003a0 76 69 2e be 9e 30 b2 bd 97 4a 26 3e 9d 1f a6 bc
       -0.17032418 -0.08700679 0.16239391 -0.020278746
0003b0 e8 a0 78 bd 99 0f 3a be 9c 43 9d 3d 11 b7 36 be
       -0.060700327 -0.18170013 0.07678911 -0.17843272
0003c0 a8 81 01 bd c3 8a 6f 3e e9 0b 57 3e e3 75 22 be
       -0.03161779 0.23392777 0.21000637 -0.15865283
0003d0 0f 87 67 3d 75 57 d7 bd 2b 69 0a 3e 0a bd 28 be
       0.056525286 -0.10514728 0.13516681 -0.16478363
0003e0 b5 49 7b bd cc 8b 95 3d dd 7d dd 3c 36 6c ae 3d
       -0.06134959 0.07302055 0.027037555 0.08516733
0003f0 f4 17 d5 bc ca 7d 25 be 31 70 29 3d 5c 27 27 bd
       -0.026012398 -0.16161266 0.04136676 -0.04080902

blocks.0.attn.out_map.bias f4 [32]
000000 9c 80 02 be e9 10 e7 3d 61 50 13 3e dd e7 10 3e
       -0.12744373 0.11282522 0.14386131 0.14150949
000010 f2 1d 89 3b 51 38 37 3e 7a 17 04 3d 0a 93 12 3d
       0.004184478 0.17892577 0.03224895 0.03578476
000020 f6 87 9f bd 18 a5 9a bd a9 29 0a 3e 7c 1d 84 3c
       -0.07789604 -0.075510204 0.13492455 0.01612734
000030 0a 0f f6 3d 25 7c e1 bd 72 d4 2d 3e bb 23 e2 bd
       0.12014587 -0.11010007 0.16975573 -0.11041971
000040 ec ee db 3d 42 15 43 bc 16 b6 05 be 9c cc 1c 3e
       0.1073893 -0.011906924 -0.13057742 0.15312427
000050 50 fe 2e 3e 95 6b f5 3d 12 44 3c 3e 21 17 f1 3c
       0.170892 0.1198341 0.18385342 0.029429974
000060 06 67 95 3d bb 71 f0 bd 17 0d 5d 3c 9e 6c 67 bb
       0.07295041 -0.11740442 0.01349189 -0.0035312544
000070 93 9f 5c 3d 1b 06 01 3e 6c b1 1e 3e 45 69 fa bd
       0.05386312 0.12599985 0.15497369 -0.1222711

blocks.0.norm1.weight f4 [32]
000000 bf ab 81 3f 48 f3 80 3f c8 f3 85 3f f8 4f 80 3f
       1.0130538 1.0074244 1.0465021 1.0024405
000010 89 71 86 3f 04 01 82 3f 28 75 85 3f e5 30 85 3f
       1.0503398 1.015656 1.0426378 1.0405546
000020 6a f2 86 3f 16 be 86 3f 2b 17 82 3f a0 40 83 3f
       1.0542729 1.052676 1.016332 1.0254097
000030 ac 6a 87 3f 0c 1e 7e 3f fd dd 81 3f 76 43 82 3f
       1.0579429 0.992646 1.014587 1.0176837
000040 43 0d 83 3f b1 de 80 3f 65 b6 83 3f f1 07 7f 3f
       1.0238422 1.006796 1.0290037 0.9962149
000050 d1 97 83 3f e0 8a 83 3f 3f 10 82 3f b7 a6 7c 3f
       1.0280706 1.0276756 1.0161208 0.98691887
000060 45 1c 83 3f c9 dd 83 3f f6 f8 7e 3f 48 a6 85 3f
       1.0243002 1.0302058 0.99598634 1.044137
000070 4d 82 82 3f 9d e9 86 3f 32 a1 7d 3f c2 e8 84 3f
       1.0196015 1.0540043 0.9907409 1.0383532

blocks.0.norm1.bias f4 [32]
000000 40 59 85 bc 01 33 59 bb 38 91 97 bb a3 e1 81 bc
       -0.01627791 -0.0033141973 -0.0046254657 -0.015854662
000010 90 cb 25 bc fa 0b 54 ba 00 46 28 3c 79 94 42 3a
       -0.010119334 -0.0008088943 0.010270596 0.0007422637
000020 5a 58 38 bb 95 fe 2a 3b bc 78 6b 3c 1f 27 2d bc
       -0.0028128834 0.0026091684 0.014372047 -0.010568409
000030 b7 89 a9 3a b6 08 e1 bc e8 e1 3d 3c 25 4e 77 3c
       0.0012934719 -0.027469974 0.011589505 0.015094315
000040 f5 48 07 bc 63 42 90 3b f9 7d c4 3a 7a 1d 3b bc
       -0.00825714 0.004402445 0.0014991156 -0.011420602
000050 bc 33 ac bb 40 7b e1 3b 78 9c 03 3c 82 7a 3c 3c
       -0.0052551907 0.0068811476 0.0080329105 0.0115038175
000060 ef 6c 60 bc ec 7b 6f bb d2 58 8d 3a d2 bd d1 ba
       -0.013697847 -0.003654237 0.0010783917 -0.0016002005
000070 21 f7 ac 39 b8 34 0a bc a2 88 5c 3c 34 94 34 3b
       0.00032990522 -0.008435421 0.01346031 0.0027554156

blocks.0.mlp.0.weight f4 [128, 32]
000000 46 d9 0d 3e 15 79 c7 bd 71 55 9c 3d 55 50 94 3d
       0.13852414 -0.097398914 0.07633484 0.072418846
000010 8c a3 04 3e 88 62 3c bd 7f 2a de 3d a0 92 04 3e
       0.12953013 -0.045992404 0.10847949 0.12946558
000020 ab 2e 10 3e aa 27 0e 3d 5f 52 1e 3e 66 6e 7a 3d
       0.14080302 0.034705795 0.1546111 0.06114044
000030 b3 17 04 3e 8c 2d 29 3e f2 16 e7 3d 88 d9 4a 3e
       0.12899666 0.16521281 0.11283673 0.19809544
000040 5c 3b 06 3e 35 73 32 be 79 97 d9 3c 95 ca 4a 3d
       0.13108581 -0.1742676 0.026561486 0.049509604
000050 c4 71 06 3c da c4 c2 bd 4f 7d ba 3c 0f 3d 0a be
       0.008205835 -0.09510203 0.02276483 -0.13499855
000060 63 1f 8a bc f2 88 34 3d 40 b0 95 bd 06 93 bd bd
       -0.01686067 0.044075914 -0.07309008 -0.09256558
000070 ae 87 2d be d7 d2 62 bd eb 8f 32 3e d3 1b a2 bd
       -0.16946289 -0.055376854 0.17437713 -0.07915463
000080 94 60 03 be 37 7d 2f be 7e d3 05 3d 24 7d 87 3d
       -0.1282981 -0.1713761 0.032672398 0.066156656
000090 a3 7b e5 3d 89 0c 31 be b7 a3 fd 3c 8c 36 69 bc
       0.112052225 -0.17289938 0.030961854 -0.014234196
0000a0 0a 1a b3 bd 46 d3 b0 3d 74 1a 8b bd a3 ab 67 3d
       -0.08745201 0.08634047 -0.06792155 0.05656017
0000b0 22 be a3 bd b9 d4 1e 3d 77 87 5a bc 65 d8 ef bd
       -0.07995249 0.038777087 -0.013337961 -0.11711196
0000c0 f2 10 b7 3d db f3 76 3d 23 ec 6d 3d bd 45 53 bd
       0.08938779 0.060291152 0.058086526 -0.05158018
0000d0 87 04 1b bd d3 ab e1 bc 41 a3 34 3e a3 32 6d bd
       -0.037846114 -0.027547752 0.17640401 -0.05790962
0000e0 b0 ab de bc 93 9a 71 3d 80 04 7c bd ff 8b 79 3c
       -0.027181476 0.058985304 -0.06152773 0.015231132
0000f0 99 f4 26 bd fc e5 5e bc 44 3e fc bd a3 a4 0b be
       -0.04076061 -0.013604637 -0.12316564 -0.13637023
000100 bd 08 23 be 50 80 c7 bd 40 9b d6 bd e0 ce 32 3e
       -0.15921302 -0.097412705 -0.1047883 0.17461729
000110 d6 dc 08 be 13 94 34 be cd 75 cf 3b 5f 22 17 be
       -0.13365492 -0.17634611 0.0063311816 -0.14759205
000120 82 12 14 be 26 64 04 3e 86 ef 35 be b4 c3 26 3e
       -0.14460185 0.12928829 -0.17767152 0.16285592
000130 6a 97 c4 39 5b 25 83 3d f0 4b 08 bb ca 5d 83 3d
       0.00037496845 0.06403609 -0.0020797215 0.06414373
000140 f6 3f d0 bd 81 75 69 bc c3 a5 b1 3d 18 74 df bd
       -0.101684496 -0.0142492065 0.08674195 -0.10910815
000150 59 57 a1 3d 40 e0 ab bd 3b ac 23 be 21 e6 d6 3d
       0.07877988 -0.08392382 -0.1598367 0.10493112
000160 de d3 f4 3c da 89 d2 bd 91 43 cc bb 65 6d e5 3d
       0.029886182 -0.10280199 -0.0062336405 0.11202506
000170 77 9d 6e 3c ae 6a 00 3d 48 e1 ce 3d 5c 10 22 be
       0.01456391 0.031351738 0.10101563 -0.15826553
000180 8f 68 09 3e 14 5c 47 3e 38 b2 0b 3d 0e a0 83 bd
       0.13418792 0.19468719 0.03410551 -0.064270124
000190 f0 c2 3f 3d 05 7a 31 3d fe c0 d8 bd 8d 9f 81 3d
       0.046816766 0.043329258 -0.10583685 0.0632926
0001a0 5e e1 c5 bd b9 f5 3e be 4e 74 37 bd b7 a6 45 bc
       -0.09662126 -0.18648423 -0.04478865 -0.012063674
0001b0 cf 3f 4c 3e b2 2e 17 be 9e 7a f4 3d 69 a1 1d 3e
       0.19946216 -0.14763907 0.1193745 0.15393604
0001c0 ef d7 1b 3e 7f 08 0d 3e fc 08 73 3d 1c 90 ea bd
       0.15219091 0.13772772 0.05933474 -0.11453268
0001d0 88 a9 19 3e 4e 2f 05 be 28 11 ab bd 7c 26 57 3d
       0.15006077 -0.13006327 -0.08352882 0.052526936
0001e0 0e 7a d3 bd d2 60 80 3d 34 39 e5 3d 3a a7 c1 3d
       -0.103260145 0.06268467 0.11192551 0.09455724
0001f0 38 9d 26 bc f0 8e 9e bd 54 90 7e bd ab 6f b5 3d
       -0.01016932 -0.07742107 -0.06214936 0.088591896
000200 de 26 18 be 1c 2b a1 3d 06 f5 0b 3e b6 53 0f 3d
       -0.14858577 0.078695506 0.13667688 0.034991942
000210 f9 86 b8 3c 04 3a 84 bc 49 cc 0a be 82 2d d1 bc
       0.022525297 -0.016140945 -0.13554491 -0.025534395
000220 6f 8a 37 be c6 e0 16 3e 01 c5 df bd ab c3 91 bc
       -0.17923902 0.14734182 -0.109262474 -0.017793497
000230 22 78 35 bd 86 d2 f8 3d 92 4a ab 3d c5 e5 15 3e
       -0.04430402 0.12149529 0.083638325 0.14638431
000240 41 ca 49 3c 59 9a e3 3d 15 73 26 bc 57 65 07 3d
       0.0123162875 0.11113424 -0.010159274 0.03305563
000250 08 53 fc 3d 4b c8 01 3d f5 c0 2d 3e f2 be 19 3e
       0.123205245 0.031685155 0.16968139 0.15014246
000260 e3 08 0b 3e 46 c6 09 be 2c bd 52 bd ac a9 b1 3d
       0.13577609 -0.13454542 -0.05144994 0.086749405
000270 db f0 09 be 5a e9 53 3c 2f 3b 7e bd 4c 31 20 be
       -0.13470785 0.012934053 -0.06206816 -0.15643805
000280 7c f2 f0 3d 7d e6 3d bd 62 f5 a1 bd 80 78 f4 3d
       0.11765 -0.04636239 -0.07908131 0.11937046
000290 2e 02 26 3e c7 90 04 3e 62 ab 98 3d ab 20 a1 bd
       0.16211769 0.12945853 0.07454564 -0.07867559
0002a0 d7 13 59 bd 6c 39 c4 bd 95 98 8d bd 1e 68 2a 3e
       -0.052997436 -0.09581265 -0.06913868 0.1664128
0002b0 80 9f 00 3e 11 09 2e 3e 20 8c d8 3b 4b 98 b6 3d
       0.12560844 0.16995646 0.006608501 0.08915766
0002c0 36 d1 24 3e 32 c5 f1 bd 74 ef 62 bd ff 98 2d be
       0.16095433 -0.1180519 -0.05540414 -0.16952895
0002d0 fb ca e0 3c 10 73 93 bd 56 77 1c be 14 6c b1 bd
       0.027440539 -0.07199681 -0.15279898 -0.086631924
0002e0 8d 25 ce bc 29 d2 33 3d 24 a1 b8 3d 99 8f 23 bd
       -0.02516439 0.043901596 0.0901511 -0.039931867
0002f0 0a b8 8c 3d 34 c1 34 bd b6 db 52 bd 64 62 23 be
       0.0687104 -0.044129565 -0.051479064 -0.15955502
000300 42 c7 27 3c 81 48 f0 bc f9 2b e1 bd 3a 60 11 bd
       0.010240378 -0.029331448 -0.10994715 -0.03549216
000310 17 00 1a be 0b 97 50 3d e2 0c 1b 3e ef ed ca bd
       -0.15039097 0.050925296 0.15141633 -0.099086635
000320 9b 66 f7 bd 5b 74 a4 bd bf d7 26 3d 74 76 20 3e
       -0.12080117 -0.080300055 0.040733095 0.15670186
000330 77 94 27 be 53 2a 49 bd 49 15 56 3d d5 3b 9a bc
       -0.16365229 -0.04911263 0.052266393 -0.018827358
000340 61 44 11 3e 2c 6c 07 3e 75 fb 24 3e 0f e2 01 3e
       0.1418624 0.13224858 0.16111548 0.12683891
000350 5c 06 f4 bc 78 8a f9 bc 7d fe e1 bd 4b dc 9a 3d
       -0.029788189 -0.030461535 -0.11034868 0.07561549
000360 c5 5f 5c 3d c3 33 17 be 7e b8 0a 3e 04 8f 52 be
       0.05380227 -0.1476584 0.1354694 -0.20562369
000370 b7 4d 2e be d3 bf 8d bd 3d b4 12 bd 6f a4 fa 3c
       -0.17021833 -0.06921353 -0.03581642 0.030595986
000380 dc d9 7b bd a2 7b c1 3d a8 01 4c bc 0d 9c 30 bd
       -0.061487064 0.09447409 -0.012451567 -0.04311757
000390 bb a1 45 3c c6 57 8b 3c ec d0 fb 3c ad 56 5d 3d
       0.012062485 0.017009627 0.03073927 0.05403774
0003a0 4a fb b3 3d 01 25 11 3e 33 a6 2c be db a2 b0 3d
       0.08788164 0.14174272 -0.16860275 0.08624812
0003b0 8c e8 00 bd 35 75 8e 3c c8 be 21 3e 0e de 25 3e
       -0.031471774 0.017389873 0.15795434 0.16197988
0003c0 9c 80 e3 3d 09 54 08 3d f3 16 cd 3d bb f4 be 3d
       0.11108515 0.033283267 0.10014143 0.093240224
0003d0 e2 2c 45 3e 1c 02 d5 3d ab b8 df 3b 7c 19 f2 bc
       0.19255403 0.10400793 0.006827434 -0.029553168
0003e0 ae d8 86 bd b0 52 2d be 73 16 05 3e 04 87 e2 bd
       -0.06584297 -0.16926074 0.12996845 -0.110609084
0003f0 91 23 11 3e a1 c4 00 3e 52 3c 12 be 0b 4c af 3d
       0.14173724 0.12575008 -0.14280823 0.08559426
