model_checkpoints_lr_0.001/model_epoch_18100.pth (torch, 173479 bytes, 15 tensors)

embedding.weight f4 [4, 16]
000000 02 96 76 40 d0 cd 33 c0 2d b4 32 bf d6 20 43 3f
       3.8529058 -2.8094368 -0.69806176 0.7622198
000010 97 cd 42 3f d5 97 af be a8 a1 d0 be bd 1e 61 3e
       0.76094955 -0.34295526 -0.40748334 0.21984382
000020 02 1b 80 bf cd 65 bf bf ed 3d 83 be 07 2d f3 3d
       -1.0008242 -1.4952942 -0.25633183 0.11873823
000030 5e c2 aa bf 94 15 5f 3f ff b3 0c 3f 26 10 0b c0
       -1.3340566 0.871423 0.5496215 -2.1728606
000040 29 19 df bf 82 0d 55 3f 62 aa 0a bf 1b 5c 3c 3f
       -1.7429553 0.83223736 -0.54166234 0.7357804
000050 7b be 8f bf 8a 87 f9 3c a8 e5 bd bf 5e e1 10 bf
       -1.1230005 0.030460138 -1.483571 -0.56593883
000060 c6 18 79 3d 14 f3 80 bf cc a6 a1 3e a5 72 93 be
       0.06081464 -1.0074182 0.31572568 -0.28798404
000070 0d 1f bb bf fe d5 1e 3f 1f 0c 64 3e 42 40 58 3e
       -1.4618851 0.62045276 0.22270249 0.21118262
000080 48 bb ae bc b7 d2 9b 3f 88 ec 0b be c1 22 9a 3f
       -0.021329537 1.217368 -0.13664448 1.2041856
000090 e0 17 c6 3e 8e cb 9f 3f 12 1b d2 3e 65 bc 25 3f
       0.3869009 1.2483995 0.41036278 0.6474059
0000a0 f2 84 a9 be fd 3b 99 bf 42 ae b9 3e 38 00 08 c0
       -0.33109242 -1.1971432 0.3626576 -2.1250134
0000b0 5e 85 c6 bf a2 79 47 3e dc fa 10 bf d3 0b b3 bf
       -1.550945 0.19479993 -0.5663278 -1.3987983
0000c0 9c 03 93 bf 62 9e 50 3f 16 7f 01 bd 3c 6b 84 bd
       -1.1485476 0.81491673 -0.03161534 -0.06465766
0000d0 d0 8a 08 bf 35 b4 d2 3c a1 99 84 3e 8a c1 e4 be
       -0.5333681 0.025720695 0.2589846 -0.4467891
0000e0 e1 d8 09 3e 52 bf cd bf af 99 d9 bf 44 a9 d2 be
       0.13461639 -1.6074011 -1.7000026 -0.41144764
0000f0 f2 f3 61 bf 94 49 e2 3e 4a aa 51 3e aa 7d 8f bf
       -0.88262856 0.4419676 0.20475116 -1.1210225

transformer_encoder.layers.0.self_attn.in_proj_weight f4 [48, 16]
000000 01 88 65 bc 2a cb a7 3b 9f 41 9c 3d ff be 4a 3d
       -0.014009477 0.0051206546 0.07629704 0.049498554
000010 d3 40 d1 3e 1a 43 bd 3d e5 ee 25 be d8 5e 3d 3c
       0.4086977 0.09241314 -0.16204412 0.011558257
000020 06 30 f2 3c 08 bd 11 be 76 d1 bf bd 5e b7 40 3d
       0.029563915 -0.14232266 -0.093661234 0.047049873
000030 9d 75 98 3e 77 b4 bf 3d 54 97 0a be ed c2 7d 3e
       0.29777232 0.09360593 -0.1353429 0.2478139
000040 16 1f 59 be 2e 52 d5 3d 38 73 a3 bc 55 95 d8 bd
       -0.21203265 0.10416065 -0.019952402 -0.10575358
000050 32 5c 12 3f 4d 50 2e be 23 27 72 bf fe d1 06 3f
       0.5717193 -0.1702282 -0.9459097 0.5266417
000060 04 91 87 bf af 70 df 3e a1 98 81 3f 47 86 40 3f
       -1.059113 0.43640658 1.0124704 0.7520489
000070 da e7 82 3e db b0 da bd af 6f 46 3f f2 85 bd 3d
       0.25567514 -0.10678264 0.77514166 0.09254064
000080 29 cf ec ba bf 08 98 bb d2 dc 58 bc 4d 02 8c bc
       -0.001806711 -0.0046397145 -0.013236241 -0.01709094
000090 75 8c 22 bd 51 70 c5 bc 89 bf 86 bd 42 4d 3d be
       -0.03968473 -0.024101408 -0.06579501 -0.18486503
0000a0 b1 48 0a bc de c1 31 3e b7 81 8f bd 2a f4 fc bd
       -0.008440183 0.1735911 -0.07007163 -0.12351258
0000b0 c6 ee 4f be 24 04 8f bc 05 43 61 3d 43 01 21 be
       -0.20305929 -0.01745803 0.054995555 -0.15723138
0000c0 52 d3 84 bd b7 db 45 be ee bd b3 3d 9f 19 e6 be
       -0.06485619 -0.19322096 0.087764606 -0.44941422
0000d0 b4 9b 11 bf f7 c3 b8 3e f2 8d 5d 3f b9 74 a5 3e
       -0.5687821 0.3608701 0.86544716 0.32315615
0000e0 82 35 86 bd 70 88 ac 3e cf dc 88 3e 12 84 67 bf
       -0.065531746 0.33697844 0.26730964 -0.904359
0000f0 a5 23 4f bd e9 22 00 3f a3 cf e9 be c1 88 de 3d
       -0.050571103 0.5005327 -0.45666227 0.108659275
000100 fb d8 8a 3c 2c c7 91 be f7 31 b1 bd a3 40 9d 3e
       0.016949167 -0.2847227 -0.08652108 0.30713376
000110 44 ee 9f 3e 4c e9 15 3f a6 50 a0 3b f1 3b cd be
       0.3123647 0.5855911 0.0048924265 -0.40084794
000120 a1 1d 3c 3f 31 c4 ac bd 85 db 39 be 4a bf fc bd
       0.7348271 -0.08435858 -0.18150146 -0.12341173
000130 8e c6 c7 3e da 2e 05 3e b1 b6 c2 be a4 f8 ed 3e
       0.39018673 0.13006154 -0.38030007 0.4647876
000140 6e 3a 86 bd fe be c6 3d ee b9 f6 bb 03 f9 cf 3c
       -0.06554113 0.097043976 -0.0075294888 0.025387293
000150 d0 01 2e 3f 39 bc 41 3e 0a b2 2d be 17 59 24 3f
       0.67971516 0.18919457 -0.16962448 0.6419844
000160 68 71 7f bf a7 33 7a 3e d9 31 1a 3f 23 ea e7 be
       -0.9978242 0.24433766 0.6023231 -0.4529582
000170 d1 7f 62 bb ff 5d 88 be 39 67 4c 3e d7 00 09 bf
       -0.0034561048 -0.26634213 0.19961251 -0.53516906
000180 59 e5 7c 3e f6 c9 b6 3e c7 b2 83 bb ec 8b e0 3c
       0.24696864 0.3570096 -0.0040191147 0.02741047
000190 65 78 97 3e 6d b4 d4 be 5e 63 08 be 21 59 88 be
       0.2958404 -0.41543904 -0.13319156 -0.266305
0001a0 6f b5 14 3c 2f 1d 18 be a6 93 10 3c 03 3a 9f 3d
       0.00907646 -0.14854883 0.008824265 0.07774737
0001b0 84 25 92 bc 74 60 e5 bc 52 fd c2 3e 25 fb 42 bd
       -0.017840154 -0.028000094 0.38083893 -0.04760279
0001c0 29 d0 93 3d 98 9e 62 be 63 8d 13 3d 60 6e 46 3e
       0.07217438 -0.22130811 0.03602351 0.19378042
0001d0 d2 e6 ba 3d 69 84 0b 3e b2 a7 d9 3d d5 16 1b 3f
       0.09126057 0.13624729 0.106276885 0.60581714
0001e0 5a d2 87 bc fd d9 bd bd b5 65 1a 3e 24 b5 b8 bd
       -0.016579796 -0.092700936 0.1507786 -0.09018925
0001f0 41 ae 10 bf ce c4 2b 3f b1 ff b6 3e fe eb 6c 3e
       -0.5651589 0.67097175 0.35741952 0.23136899
000200 40 7a 65 bd dd 21 ae 3d aa 2b a7 be a1 c1 63 be
       -0.05602479 0.08502553 -0.326505 -0.22241832
000210 94 68 e7 be fa ce 7d be 61 94 ad 3f 9a e6 6a 3e
       -0.45196974 -0.24785987 1.3560907 0.2293953
000220 64 77 f4 3e 3b 9c f5 3d be 42 d9 bd 20 69 9f bf
       0.47747338 0.11992689 -0.10608433 -1.2453957
000230 99 68 02 be d0 2f f2 3e 40 50 1f bf e5 ad 32 bd
       -0.12735213 0.47302103 -0.62231827 -0.04362287
000240 9c e2 24 3d a8 77 aa 3b da 69 f8 bd d0 d7 06 be
       0.040255174 0.0052022524 -0.121295646 -0.13168263
000250 e8 fd 5f bf 66 bd af be 3c 44 81 3d 87 e6 08 3f
       -0.87496805 -0.34324187 0.06311843 0.53476757
000260 32 12 dd bd 98 f6 60 3e 3a ae 1e 3d 8a 7b 95 be
       -0.10794486 0.21969068 0.038740374 -0.29195815
000270 d9 74 1a be 9b 88 32 3e 64 b3 db 3d b1 6e c6 be
       -0.15083636 0.17434923 0.107275754 -0.38756326
000280 a4 f8 42 3e 60 15 0e 3d ce 76 0d 3e d4 71 91 be
       0.19040161 0.034688354 0.13814852 -0.28407156
000290 2f 26 2e bf 3a 63 d0 be b0 7f 67 bf ee c0 6c bf
       -0.68027014 -0.40700704 -0.9042921 -0.9248189
0002a0 56 2f c8 3e 50 c0 40 3e 27 51 30 be 1a 00 9a 3f
       0.39098614 0.18823361 -0.17218457 1.2031281
0002b0 1f e6 7b be bc ed b7 bd 13 c2 1d 3f 61 7f 95 3f
       -0.24599503 -0.08980891 0.6162426 1.1679498
0002c0 df e9 e3 bc a6 82 06 bb c2 8a 0d 3d e5 a8 c2 3c
       -0.02782148 -0.002052465 0.034556158 0.023762176
0002d0 b7 47 8d 3e fe 09 cd 3d 69 c2 b4 3d 28 ee c6 be
       0.27593777 0.100116715 0.08826143 -0.38853574
0002e0 ae 4b a4 be b6 10 10 3f bb ed 1c be a4 35 73 be
       -0.3208899 0.562755 -0.15325062 -0.23750931
0002f0 ad 60 f3 3d 7b 40 27 3e ed 90 be 3e e5 5b 25 3e
       0.11883674 0.16333191 0.37219945 0.16148336
000300 28 33 4a bd ed c4 ec bc 9d 98 0e bd b1 d9 55 bd
       -0.049365193 -0.028902495 -0.034813512 -0.05220956
000310 26 c0 b1 3c 55 93 d1 bd 2f e8 18 3d 03 0e c3 bc
       0.021698069 -0.102331795 0.037330803 -0.023810392
000320 0f a3 35 3e b1 dd ad be 43 06 2d 3e 41 d7 fd bd
       0.17737983 -0.339582 0.1689692 -0.12394572
000330 75 8a 51 3d 59 c8 b1 3c 18 60 1c 3e 2e 0f 77 bd
       0.051157434 0.021701979 0.15271032 -0.06031721
000340 bc fd 0e 3f 74 5d 94 be a4 61 b5 3e 71 3a 28 be
       0.5585592 -0.2897755 0.35426056 -0.16428544
000350 55 d5 09 bf 0f 1b 05 be 77 25 71 3e aa f1 55 3e
       -0.53841144 -0.12998603 0.23549448 0.20892969
000360 a8 04 30 3f 43 ff 02 3f 0f 3d 1f 3f 96 0b 70 bf
       0.68757105 0.5117075 0.62202543 -0.9376768
000370 92 9f d2 be 84 ac b7 3c fd d8 ef be 52 28 e1 3e
       -0.41137367 0.022421129 -0.46845236 0.43976074
000380 b3 3e 33 3e 49 12 92 be f8 bc 17 3f d5 5b 5b be
       0.17504387 -0.28529575 0.5927272 -0.2142175
000390 1f 76 13 bf 59 70 0e 3e 11 09 b9 3e 88 32 25 3e
       -0.57602113 0.13910045 0.3613973 0.16132557
0003a0 0e 33 08 3f 55 f3 42 be 67 81 b4 be 4d c5 d5 3d
       0.53202903 -0.19038136 -0.35254976 0.10438023
0003b0 83 28 e7 bc cc 1f b9 3d 2b d2 b4 be 09 54 79 3e
       -0.02821756 0.09039268 -0.35316595 0.24348463
0003c0 f7 f5 d2 3d 11 05 d1 3e 66 36 ab be 69 56 b7 3d
       0.1030082 0.40824178 -0.3343994 0.08952028
0003d0 fb 30 4a bf 3c 6e 29 3f cc 45 cc 3e 55 6f 13 3f
       -0.7898099 0.6618383 0.39897 0.57591754
0003e0 18 80 65 bf 82 a9 3d 3e c9 18 fb 3d d4 d6 49 be
       -0.8964858 0.18521693 0.12260587 -0.19710857
0003f0 cb 91 68 3e 9b ea 0b 3e d2 af 86 3e 9a c2 24 bf
       0.22711866 0.13663714 0.26306015 -0.6435944

transformer_encoder.layers.0.self_attn.in_proj_bias f4 [48]
000000 c8 7e 0d be 36 c9 17 be 50 ce db 3c 13 31 c4 3e
       -0.13817894 -0.1482285 0.026831776 0.3831869
000010 95 f0 94 3b d0 90 e9 bd 68 07 cb 3d 70 64 32 3f
       0.004545281 -0.11404574 0.09913522 0.69684505
000020 b7 ae 9e 3e d4 75 02 bc 81 92 1d be d6 1e f1 3d
       0.30992672 -0.007962663 -0.15387918 0.117734596
000030 7f 33 72 3d f5 41 4f 3d 46 60 fc 3d 91 9e c7 3d
       0.05913114 0.05060001 0.1232305 0.09747041
000040 f9 3a a1 be 4c ca a7 3d 34 c9 0a be 6f 52 87 3e
       -0.31490305 0.08192882 -0.13553315 0.2643008
000050 29 21 03 3f c0 16 48 3e 58 7f 81 bd b5 43 10 3f
       0.51222473 0.19539928 -0.06323117 0.5635331
000060 d2 85 1d ba 6e d2 cc 3d 9f 07 cf be 81 8f c0 3d
       -0.00060090155 0.10001074 -0.40435502 0.09402371
000070 18 4b 5d 3e 86 61 69 3e 16 e4 9b be d1 0e d0 bd
       0.21610677 0.22791108 -0.30447453 -0.10159076
000080 c0 ef d4 bd aa 42 18 3d fe 37 4b 3d 08 a7 4c be
       -0.10397291 0.03717295 0.049613945 -0.19985592
000090 1e ff 75 be 45 35 2d bc 8d e8 2d 3e 6f 5b 97 bd
       -0.240231 -0.0105717825 0.16983242 -0.073904864
0000a0 57 20 2d bd 49 f4 bb bd f5 f8 37 3e 75 0d 81 bd
       -0.04226717 -0.09177453 0.17966063 -0.06301395
0000b0 f6 d0 97 3d 9d 90 ed 3d e7 37 91 be 19 b1 1e 3c
       0.07412903 0.115998484 -0.28362963 0.009685778

transformer_encoder.layers.0.self_attn.out_proj.weight f4 [16, 16]
000000 8d cf 9c bd f5 a7 8b 3d c5 0b 6d 3c e6 d2 8e bd
       -0.07656775 0.06819145 0.014468138 -0.069738194
000010 89 9d 67 bc 0c 78 a1 ba 52 58 50 3b 29 6f eb 3d
       -0.01413668 -0.0012319102 0.0031790924 0.114958115
000020 bb 88 b5 3e 84 3e 1e bc bf 5e 36 3d e4 f8 a3 3b
       0.3545588 -0.00965846 0.04452395 0.0050040353
000030 65 26 3e 3e 07 31 85 3a 4f 37 33 bd 90 bd 00 3e
       0.18569334 0.0010161706 -0.04375392 0.12572312
000040 db d8 c5 3d d5 b6 8d 3d 52 67 20 3b 38 e5 86 bc
       0.096605025 0.06919638 0.0024475646 -0.016466722
000050 28 9a 2e 3e e4 69 8f bb da 8b 8e bb 7f 90 df bc
       0.17050993 -0.004376637 -0.0043501677 -0.02729058
000060 8d f0 c6 bd 21 c8 45 bb 40 92 c5 ba 6c 80 3c 3a
       -0.0971385 -0.00301791 -0.0015073493 0.0007190767
000070 29 a1 1a bd 29 64 96 bb 49 ef 4c 3d e6 15 10 bd
       -0.03775135 -0.0045895767 0.050032888 -0.035177134
000080 f9 50 63 3d 8e bb 55 3e 1b 38 e6 39 bc 9b 44 3e
       0.055497143 0.20872328 0.0004391082 0.19200033
000090 ee 7c 04 3e f3 fa 7a 3b be c4 e4 bb 67 fd 53 3e
       0.12938282 0.003829655 -0.0069814613 0.20702134
0000a0 ff 5f 12 3e 8e 6f 34 3c 7f 15 3a 3e 0b 11 a3 ba
       0.14294432 0.011012925 0.18172263 -0.0012440992
0000b0 35 25 d1 bd c6 dc d1 b8 b9 11 05 be 96 ad 37 3c
       -0.10212175 -0.00010007019 -0.12995042 0.01121082
0000c0 7f de 59 be 3c 80 48 bd 32 c4 db 3b 61 d8 18 3d
       -0.21276282 -0.04895042 0.006706738 0.03731573
0000d0 14 14 1f 3a 3b 22 fc 3a f0 09 8f bb 71 d8 cb bd
       0.00060683605 0.0019236276 -0.0043651983 -0.09953392
0000e0 8a 77 05 be 79 74 23 ba c8 b4 f1 bd 0c 5e b3 ba
       -0.13033882 -0.00062353123 -0.118020594 -0.0013684644
0000f0 4f 83 1e 3e c0 94 52 3a 60 6a 32 bb e9 4b 20 be
       0.15479778 0.000803303 -0.002722405 -0.15653957
000100 e3 fe 32 be fc 98 3d 3e d0 fe 19 3c c5 dd 48 3e
       -0.17480044 0.1851539 0.009399131 0.19615848
000110 95 6c 39 bd df 6d 7e bb 20 e7 a5 bb 7c c4 ea 3d
       -0.045269568 -0.0038822812 -0.0050629526 0.11463258
000120 9d a8 e0 3d 7d ce 8a 3b 96 39 2b be 5c f8 02 bb
       0.109696604 0.004236041 -0.16721186 -0.001998446
000130 d7 91 bb bd 1e 6b f5 bb b6 c5 97 bd 0d 11 35 3d
       -0.09158676 -0.007489576 -0.07410757 0.044205714
000140 2c 28 15 be a5 67 7a bd 9f 67 6c 3b 1e 4b 1c 3e
       -0.14566106 -0.061134 0.0036072505 0.1526303
000150 7c 19 e3 bd 18 05 79 ba 72 f5 b3 bb 27 37 9b be
       -0.11088845 -0.0009499355 -0.005491906 -0.30315515
000160 38 3a 6e be b2 52 2a 3b 72 90 47 bd 24 c0 63 bb
       -0.23264396 0.0025989232 -0.04872174 -0.0034751976
000170 93 2a 6a bd 39 cb b6 bb 07 e0 7e 3d 82 fd f9 3d
       -0.05716951 -0.0055784252 0.062225368 0.12206556
000180 a5 43 e8 3c b6 23 aa bd a0 ae 16 3c ee 26 25 be
       0.028352568 -0.083075926 0.009196907 -0.16128132
000190 d0 e2 0e be 71 fe 82 bb f5 bd 12 bc a0 74 8f bd
       -0.1395371 -0.003997617 -0.008956422 -0.07004666
0001a0 d2 9c 8a 3d 0b 06 3d 3c ee 70 45 3e 54 e4 38 ba
       0.06768192 0.011537085 0.1928136 -0.00070530665
0001b0 fb 22 d1 3d 62 0d 0d bc 08 16 aa 3c 77 bd 20 3e
       0.1021175 -0.008609148 0.020762458 0.15697275
0001c0 80 6a a5 3d 2b b6 3e bd 5c e5 80 3c 77 a1 b5 bd
       0.08076954 -0.046560448 0.015734367 -0.088686876
0001d0 ab 58 6c bd 29 96 40 3b 68 06 ca bb 0c e3 c8 3d
       -0.057701748 0.0029386377 -0.0061653145 0.09808931
0001e0 ea 79 45 3e fd bc e1 3b 09 2a 07 be 28 e5 1e ba
       0.19284788 0.0068889842 -0.13199629 -0.00060613686
0001f0 6f 07 a1 bd 1d e6 d8 3a 46 b8 ed 3c 90 b8 66 be
       -0.07862746 0.0016548071 0.029018532 -0.22531343
000200 d6 e2 81 3e 88 f1 03 bf d2 ce ac bb d3 fc 65 3f
       0.25368375 -0.5154042 -0.0052736783 0.89838904
000210 87 8d dd 3e 3f 4d 50 ba 48 dc b0 bb 3c 3f bb bb
       0.4327204 -0.0007946081 -0.0053973533 -0.0057143252
000220 0f 1f 51 3e 64 90 33 3b 88 6e bd 3e 9d c6 0b bc
       0.20422004 0.0027399296 0.3699839 -0.00853124
000230 f0 9f ce 3e 3f b6 05 bc 5f 84 89 be 9e 2e 7d be
       0.40356398 -0.008161127 -0.26858804 -0.24724814
000240 b5 04 2b 3d 01 04 c2 3d b5 3d a4 3c 15 05 c3 bd
       0.041752536 0.0947342 0.020048955 -0.09522454
000250 06 99 06 3e c6 df 0f 3b f5 8a ea bb d7 5b 99 bd
       0.13144311 0.0021953448 -0.0071576783 -0.0748822
000260 e3 a9 b0 3d 34 39 bb 3b 03 51 39 bd 29 81 1c bb
       0.08626153 0.0057136063 -0.045243274 -0.0023880696
000270 dc 57 17 3e 26 be 0c bb c9 e8 38 bd 3f 7c 15 3d
       0.1477961 -0.0021475642 -0.045143876 0.036495443
000280 7d 8c 68 be 09 51 b8 bd b1 03 43 3c 0d 93 66 be
       -0.22709842 -0.08999831 0.011902736 -0.22517033
000290 aa 39 20 be ea 47 73 bb 61 56 58 bb 27 d1 d9 3e
       -0.15646997 -0.0037121722 -0.003301047 0.42542383
0002a0 93 4c 07 bd 51 40 9d 3a 50 83 d6 3e 3c 60 30 bc
       -0.03303201 0.0011997317 0.41897058 -0.010765132
0002b0 d6 c0 4b bd 64 90 12 bc d6 49 0e be 9d 20 2a be
       -0.04974445 -0.008945558 -0.13895354 -0.16614003
0002c0 4d 32 04 be bf 5b 2f 3e 5f de 4c 3b a8 72 01 39
       -0.12909813 0.17124842 0.0031260473 0.00012345111
0002d0 d2 79 84 be 90 24 80 3a 7c 75 02 bc 12 44 c9 be
       -0.25874192 0.0009776521 -0.007962581 -0.39309746
0002e0 1b 12 ba be e4 01 59 3b 35 46 8b 3e 23 b4 45 3b
       -0.36341938 0.00331127 0.27202 0.0030167184
0002f0 73 22 01 be 54 63 47 ba e9 0a 79 be 3f 1c 17 bf
       -0.12610798 -0.00076060486 -0.24320568 -0.59027475
000300 74 9b a1 3c 16 fa c9 bd 7c 33 72 3c 3d 67 bf bc
       0.019727446 -0.09862153 0.014782783 -0.023364658
000310 10 4f 32 3e fe f2 8c 3b 95 a6 05 bc 77 fd 49 bd
       0.17412972 0.004301428 -0.008157392 -0.04931399
000320 4b 2f 9d be 51 85 97 3b ef 29 6d bd ab 5a a4 3b
       -0.30700144 0.004624047 -0.05790132 0.0050156913
000330 1c 64 84 bd dc c6 1a 3b 8f e5 b6 3c 65 17 ee bd
       -0.06464407 0.0023617065 0.022326259 -0.11625556
000340 33 23 8b bd 47 83 a3 bd ba 8a a1 3b 83 cf 74 bd
       -0.06793823 -0.079840235 0.0049298676 -0.05976821
000350 41 fa b7 3c d2 26 d1 b9 f1 1a cf bb b5 94 9b 3e
       0.022458198 -0.0003989251 -0.0063203503 0.30386892
000360 a4 b2 80 3e 3a a3 f8 39 52 ca 51 3a eb 49 d9 ba
       0.25136292 0.0004742386 0.00080028654 -0.0016577815
000370 25 74 da 3d 15 22 75 bb c1 22 b6 3c 69 18 72 3e
       0.10666684 -0.0037404348 0.022233369 0.23642124
000380 ce 72 3d bc 4c ea 83 3f cd 79 27 3c 6b c3 8a 3e
       -0.011563016 1.0305877 0.010221911 0.27102217
000390 1f 85 e9 be 99 f5 30 ba b4 f9 cc bb 06 39 61 3f
       -0.45609376 -0.0006750464 -0.006255353 0.87977636
0003a0 f6 33 fa be 46 37 43 3b 00 18 c5 3e 6a 55 a5 bb
       -0.48867768 0.0029787584 0.38494873 -0.0050455825
0003b0 cb 27 4e 3f ab c0 63 bb c1 02 5f 3f 21 45 cb be
       0.8052947 -0.003475229 0.8711358 -0.3970118
0003c0 f1 02 10 3f d7 ed 3b 3d f2 b0 c8 3c d8 fc 3b be
       0.5625449 0.04588112 0.024498437 -0.18358171
0003d0 f4 5b bb be 91 62 86 bb e6 e7 30 bb c0 0e d2 3e
       -0.36593592 -0.0041011055 -0.002699369 0.41026878
0003e0 79 c2 2f bf b3 7d 39 bb ca bd 99 be 0b 8e 03 3b
       -0.68656117 -0.0028303682 -0.3002761 0.0020073678
0003f0 cd 01 9b 3e a3 6c c4 ba e9 8e 98 bf 1f 49 a6 3e
       0.3027481 -0.001498599 -1.1918613 0.32477662

transformer_encoder.layers.0.self_attn.out_proj.bias f4 [16]
000000 78 46 af 3e df 20 b8 bd 1e f8 0c 3e a7 ea 1c be
       0.3423345 -0.08990645 0.13766524 -0.15323888
000010 ad ea 04 3e af fc 79 be 9e 41 b6 3d 60 63 c6 3d
       0.12980147 -0.24412797 0.08899234 0.09686923
000020 c7 44 46 bd 1d 99 2e 3d 9f c1 9d 3d 8a f8 0e bf
       -0.048405435 0.04262649 0.07702946 -0.5584799
000030 2a f0 97 be c9 6b c0 3e e2 32 e8 3d 4a fc 06 be
       -0.29675418 0.37582234 0.1133783 -0.13182178

transformer_encoder.layers.0.linear1.weight f4 [1024, 16]
000000 30 55 c2 3e 7f 71 3b 3e 2f 59 4f be 4e 47 b8 bd
       0.37955618 0.18305014 -0.20248865 -0.08997975
000010 7f 9f 64 bf d3 c2 6f be ac 5c 06 3f f4 f0 fc be
       -0.8930587 -0.23414163 0.52485156 -0.49402583
000020 e6 13 2b be 07 e1 8f 3f 49 e3 6a bf 1e ce 47 bf
       -0.1670681 1.1240548 -0.9175306 -0.78048885
000030 45 3c cc be 5f 6b bb 3f 98 a2 8f 3f e7 78 68 3f
       -0.39889732 1.4642142 1.1221495 0.9080948
000040 e1 f4 04 be 28 96 c9 3d 45 8a fc 3f a8 f3 8e bd
       -0.12984039 0.09843093 1.9729697 -0.069800675
000050 ec d0 7f 3f 9e 6e 64 bf 5d 4d 2f bf ce da f9 3d
       0.99928164 -0.8923129 -0.6847742 0.12199937
000060 d1 0b a7 bd a6 ac 24 bd 1c 73 56 3f 36 20 f6 be
       -0.08156551 -0.040203713 0.8376939 -0.4807145
000070 6f e6 07 40 96 bd 0c 3f c7 e5 84 3f b1 21 b3 bf
       2.1234396 0.54976785 1.0382622 -1.3994657
000080 00 25 93 3d 9f 6e 78 3c a7 f6 11 bf df da ff be
       0.071847916 0.015163093 -0.57016987 -0.49971673
000090 92 34 9c 3d 81 41 b5 bf 22 e3 b1 be 46 1d 4f 3e
       0.076272145 -1.4160615 -0.347436 0.2022601
0000a0 db c6 88 bf 4e 27 44 be 68 1c 0e 40 1e 7e 82 bf
       -1.0685686 -0.19155619 2.2204838 -1.0194738
0000b0 c6 6c c2 3e cd 8b 1d 3c d1 95 9a 3d 20 77 87 3e
       0.37973613 0.009615851 0.075481065 0.26458073
0000c0 68 be a4 3e db 74 97 3e 60 9c 4c 40 ab d2 9c bd
       0.32176518 0.2958134 3.1970444 -0.07657369
0000d0 f6 14 99 be 59 ab 64 bf 1b e7 92 bf 42 52 65 bf
       -0.29898804 -0.89323956 -1.1476778 -0.8957864
0000e0 42 11 95 bf 3e 1a dd 3b 8a 0b 66 3f f1 f8 88 be
       -1.1645892 0.006747513 0.8986136 -0.26752427
0000f0 63 99 46 3f 78 22 57 3f 28 5b 09 3f da b6 8f 3f
       0.775778 0.8403697 0.5365472 1.1227677
000100 0f f3 fe be d8 51 79 be e7 f0 84 3e 29 f9 1c 3f
       -0.49794814 -0.24347627 0.25965044 0.6131769
000110 1e 98 a8 bd 7a d0 fe 3e 30 0f 51 3f 9e 07 dc be
       -0.08232139 0.4976843 0.816638 -0.4297456
000120 96 c8 ba 3f a0 54 72 3f 0b 27 28 bf 66 41 ba bf
       1.4592464 0.9466038 -0.65684575 -1.4551208
000130 2b 14 af be 2e 94 b4 bc d7 81 13 3f f4 02 84 be
       -0.34195074 -0.022043314 0.57619995 -0.25783503
000140 c6 44 73 be a7 94 39 3f c6 1b 0f 3f 12 1c 8e 3e
       -0.23756704 0.7249245 0.55901754 0.2775579
000150 cc dd 6e be 1f db 47 bf 82 6f d8 be 77 c6 08 3d
       -0.23326796 -0.7806873 -0.42272574 0.033392396
000160 97 67 32 bf 20 20 85 bf e0 36 13 be d8 b2 17 bf
       -0.69689316 -1.0400429 -0.14376402 -0.5925727
000170 67 ef 9f be 91 c5 a2 bb 5a 9a bc 3f 7e 18 cd 3e
       -0.31237337 -0.0049673994 1.4734604 0.4005775
000180 c8 1f 76 bd 11 86 39 bc b0 d8 9a 3f 04 24 52 3e
       -0.060088903 -0.011323468 1.2097378 0.20521551
000190 5f e6 f4 3e 8a 4d bc be ef d2 7c bf 38 4e 0a 3e
       0.4783201 -0.36777908 -0.9875936 0.135064
0001a0 e1 48 b1 be c4 d4 03 3d f9 51 a6 bf 0c 1b e5 bf
       -0.34625915 0.03218533 -1.2993766 -1.7898879
0001b0 e7 f8 19 3f 3c d8 d6 3f a5 f7 8d 3f ac 8a 62 3f
       0.6014542 1.678474 1.10912 0.88492846
0001c0 e9 10 1a be 9c de 87 3f 80 eb 65 3c cb b6 0d c0
       -0.15045513 1.061481 0.014033198 -2.2142818
0001d0 e0 d6 7f bf ca 7e 7b 3f 40 c2 1d 3f cd 81 3a c0
       -0.9993725 0.9824034 0.61624527 -2.9141724
0001e0 67 9d 7d bf 08 bd 58 3e 70 ab a0 3f 3d 90 64 bf
       -0.990683 0.2116586 1.2552319 -0.8928259
0001f0 ff f2 bd 3f 40 62 c0 3e 2f c8 2c 3e 41 ae a3 be
       1.4839782 0.3757496 0.16873239 -0.31968883
000200 66 65 92 be bf 85 15 bf 9d 52 99 3e 71 2b 01 40
       -0.28592986 -0.58407205 0.2994584 2.0182765
000210 23 58 01 3f 65 19 33 3f eb 45 ca bc bb 6a 70 bf
       0.5052511 0.69960624 -0.024691543 -0.9391286
000220 ff b3 9e be 67 fa eb be a4 5e 7b 3f ff 56 ca be
       -0.309967 -0.4608948 0.98191285 -0.39519498
000230 53 5a 4c 3f 78 1a 0f bf c3 2b 31 be 1a 66 ed be
       0.79825324 -0.55899763 -0.1730185 -0.4636696
000240 39 8e 5b be 0a 27 10 3e 6b a9 14 be 34 37 27 3f
       -0.21440972 0.14077392 -0.14517753 0.6531861
000250 f3 8a a6 bd a2 b6 32 3f dd 06 a5 3e 95 cf 00 c0
       -0.08131971 0.69809926 0.322318 -2.0126698
000260 a0 85 fd 3e 68 4b 68 3e 2f bb 86 bf 3d 92 2d 3f
       0.4951601 0.22685015 -1.0525874 0.67801267
000270 8c 96 60 3d 47 75 da 3e 98 e5 7c 3f 25 6d dc bd
       0.054831073 0.426676 0.9878783 -0.10763005
000280 6b c8 8e bc 02 99 81 3e f5 93 34 be fa a5 33 bd
       -0.017429551 0.25312048 -0.17634566 -0.04385946
000290 7e 4e ed be e2 66 bf be 9b f3 29 3e d0 3a d0 3e
       -0.46348947 -0.3738318 0.16596834 0.4066987
0002a0 52 0d 6e 3e a3 58 5b bf 8e 59 3e 3f 9c 1f e3 3d
       0.23247269 -0.85682124 0.743554 0.110900134
0002b0 11 7e d4 3f 23 89 85 3f 4f 24 cc be d7 65 75 bf
       1.6600972 1.0432476 -0.3987145 -0.9585852
0002c0 2e 70 c5 be 85 1d d2 3e 24 e3 89 bd c1 6d 5f be
       -0.3856215 0.41038147 -0.06732777 -0.21819212
0002d0 d2 9e 00 3f c1 a1 43 bf db 63 88 bf 47 4b 72 3f
       0.5024234 -0.7641869 -1.0655473 0.94646114
0002e0 1b e9 3b be 75 68 10 3f c3 34 10 bf 2a 4d 95 bf
       -0.18350641 0.5640939 -0.5633051 -1.1664174
0002f0 92 64 80 3e 5b 04 a6 3f 13 2c 48 be c8 e2 ff 3f
       0.2507673 1.2970079 -0.19548063 1.9991083
000300 b9 51 92 be a7 34 7e be f8 31 14 bc cc a1 47 3e
       -0.28577974 -0.24824773 -0.009045117 0.19495314
000310 e3 69 92 3f 5e 87 9d be d2 b1 c2 bf 31 a5 d6 3e
       1.1438564 -0.3076734 -1.5210516 0.41922906
000320 59 98 53 3e 0d 31 80 bf 33 c8 52 3e 3f 96 ef bd
       0.20663585 -1.0014969 0.20584182 -0.11698579
000330 ab 07 b9 3f 23 9b 08 3f 1b 6c 05 be fd 4f b5 3e
       1.4455465 0.5336172 -0.1302952 0.3541259
000340 77 80 75 bd b5 d0 b9 3e 62 bc 9b be ff 62 84 bf
       -0.059936967 0.36292043 -0.30417162 -1.0342711
000350 91 f5 96 3d 9f e6 9d bd c3 6c fb 3e 0b 43 48 bf
       0.07371057 -0.07710003 0.49106416 -0.782273
000360 42 61 b4 3e aa 9f 87 3f c1 98 c4 be 69 88 07 c0
       0.35230452 1.0595601 -0.38397792 -2.1177008
000370 a1 e7 8c 3f a6 60 b2 3f ad 86 b6 3e 72 1a 34 3f
       1.1008188 1.3935745 0.35649624 0.7035285
000380 eb f7 e0 be 60 97 c6 3e 84 c7 13 be 57 ca d7 3f
       -0.43939146 0.38787365 -0.14431578 1.6858624
000390 13 80 88 bf fd 68 99 3d 3d 86 3d 3f 7c 33 ff bd
       -1.0664085 0.07490728 0.74032956 -0.12460992
0003a0 5a aa bd be 57 5d 3c 3e 05 00 db be c8 c7 8c bf
       -0.3704403 0.18394981 -0.42773452 -1.0998468
0003b0 a3 61 15 be 1b 1f 49 3f af 25 7c be 4f a7 95 3e
       -0.14588027 0.7856309 -0.2462375 0.2922921
0003c0 7c ca 63 be 30 e0 1d bc 67 d7 76 bf 9b 78 93 3e
       -0.2224521 -0.00963597 -0.9642243 0.28802952
0003d0 55 97 83 bf ee 43 04 bf d5 f5 9d 3e 9b e2 39 3d
       -1.0280558 -0.5166615 0.30851617 0.045382123
0003e0 65 01 9d be 8f fa 0f 3e 64 d9 72 be e3 4b 82 3f
       -0.30665126 0.14060424 -0.2371574 1.0179409
0003f0 2d 2a 76 bd 73 a8 dc 3d e0 52 e8 3e d9 6e ec be
       -0.060098816 0.10774317 0.4537573 -0.4617832

transformer_encoder.layers.0.linear1.bias f4 [1024]
000000 4f 17 44 bf a9 4a f5 be c6 55 8f bf 20 a1 92 bf
       -0.76598066 -0.47908524 -1.1198051 -1.1455421
000010 db 32 55 bf 49 4c 11 bf b9 05 36 bf 79 46 86 bf
       -0.83280724 -0.56757027 -0.7110248 -1.0490257
000020 d0 e9 f5 be 10 18 29 bf e1 f7 7f be d2 73 6d bf
       -0.48029947 -0.6605234 -0.24996902 -0.9275485
000030 25 76 b2 be 7e cd 7b be 17 a2 12 bf c9 e9 ab be
       -0.34855762 -0.24590108 -0.5727858 -0.335768
000040 95 83 88 bf 30 bc a0 be b8 4d e5 be 29 f4 3a bf
       -1.0665156 -0.31393576 -0.44785857 -0.7302881
000050 7e 89 25 bf 6f 73 8a bf fa 58 98 bf ef 7c 6a bf
       -0.6466292 -1.0816478 -1.1902153 -0.91596884
000060 03 63 91 be 39 05 55 bf 1a 14 45 bf 84 79 0b bf
       -0.28395852 -0.83211094 -0.769838 -0.54482293
000070 36 a8 0c bf 45 40 0f bf 5a 05 58 bf f2 25 48 bf
       -0.5494417 -0.5595744 -0.84383166 -0.781829
000080 d5 e6 49 bf 70 98 e2 be cb c7 09 bf 15 e9 1e bf
       -0.78867847 -0.44256926 -0.53820485 -0.62074405
000090 5e c5 5a bf 6d 1a 64 bf 32 52 50 bf bb ea a1 bf
       -0.8545741 -0.8910282 -0.8137542 -1.2649759
0000a0 c2 54 3f bf 5c 49 89 bf 29 56 46 bf d2 5a 62 bf
       -0.74738705 -1.0725513 -0.7747522 -0.8841983
0000b0 ce bc 5a bf f3 e9 af bf 57 aa 1c bf 84 ad 66 bf
       -0.85444343 -1.3743271 -0.6119742 -0.90108514
0000c0 d3 b1 3c bf 32 13 b9 be 08 79 02 bf 7d ed 2b bf
       -0.7370884 -0.36147457 -0.5096593 -0.67159253
0000d0 0a af 85 be 3c 39 9c be e7 51 0d bf a3 dc 60 bf
       -0.26110107 -0.30512416 -0.552031 -0.87836665
0000e0 8d 8f 3a bf 42 31 a3 be 0e 9d ae be 1d 7f 2d bf
       -0.7287529 -0.31873518 -0.34104198 -0.67772084
0000f0 3d 56 6d bf b8 34 50 bf 8e 2f 6c bf 2d 9f a7 bf
       -0.92709714 -0.8133044 -0.9226006 -1.3095452
000100 8c a5 4d bf 08 0a 9a bf 2d 58 43 bf 84 2c 10 bf
       -0.8033073 -1.2034311 -0.7630642 -0.56317925
000110 ba c5 93 bf bd 89 c1 bf f2 00 83 bf 98 62 3f bf
       -1.1544716 -1.5120159 -1.0234663 -0.7475982
000120 cf 7a 23 bf 78 3b 31 bf b7 1a 46 bf 70 70 93 bf
       -0.63859266 -0.6923137 -0.77384514 -1.1518688
000130 04 ba dd be 79 33 d2 be 34 ef 57 bf b9 1a e7 be
       -0.4330598 -0.41054896 -0.8434937 -0.45137575
000140 65 99 66 bf c0 56 82 bf 37 a5 06 bf f5 fc 26 bf
       -0.9007781 -1.0182724 -0.5259585 -0.6522973
000150 f5 db b5 be f2 d1 9e bf 0a 67 cf be 70 da 86 bf
       -0.35519376 -1.240782 -0.405083 -1.0535412
000160 67 7f 23 bf 72 20 2d bf 22 12 dd be 3a 2e 35 bf
       -0.63866276 -0.6762763 -0.43177897 -0.7077366
000170 b7 61 86 bf 83 3e 66 bf 7b c1 57 bf bb 9a 95 bf
       -1.049857 -0.89939135 -0.842796 -1.1687845
000180 50 14 2d bf 88 f1 6d bf 38 ed 26 bf aa 2f 02 bf
       -0.6760912 -0.9294667 -0.6520572 -0.5085398
000190 d7 8d 25 bf 1a 26 7f bf 1f ad 9e bf c5 aa 27 bf
       -0.64669555 -0.99667513 -1.2396582 -0.6549495
0001a0 94 e7 66 bf f2 09 0c bf fd de 3f bf 6a 2a 01 bf
       -0.9019711 -0.54702675 -0.7494963 -0.50455344
0001b0 90 ff 5e bf 78 f2 27 bf d7 a0 97 bf 1c 3f 06 bf
       -0.8710871 -0.6560435 -1.184596 -0.5244005
0001c0 64 ac 11 bf 8a 53 51 bf 44 a3 83 bf 96 56 b3 bf
       -0.5690367 -0.81768095 -1.02842 -1.4010799
0001d0 ea 86 34 bf 94 7c 6e be 49 ed e0 be bc 2c 71 bf
       -0.7051836 -0.2328971 -0.43931034 -0.94208884
0001e0 14 7d 58 bf ff f2 80 bf 62 fa 78 bf 78 76 4b bf
       -0.84565854 -1.0074157 -0.97257054 -0.79477644
0001f0 2a dc 7a bf f4 24 af bf d9 5c b9 be 64 bd 6d bf
       -0.97992194 -1.3683152 -0.3620365 -0.9286711
000200 5d d7 85 be a8 d7 81 bf 4c b0 a5 bf 95 ce e0 be
       -0.26140872 -1.0143938 -1.2944427 -0.4390761
000210 20 90 33 bf 36 8e 7b bf 0f 5f aa be ff 6f d7 be
       -0.7014179 -0.9826387 -0.3327565 -0.42077634
000220 48 71 85 bf 70 c6 7d bf b4 74 b3 bf 0d 4a d1 be
       -1.0425196 -0.99130917 -1.401999 -0.4087681
000230 1a 66 c5 be 05 11 bd bf 48 53 28 bf a2 7c 91 bf
       -0.3855446 -1.4770819 -0.6575208 -1.136616
000240 00 91 85 bf 23 59 1f bf 5e 47 3d be f4 67 38 bf
       -1.0434875 -0.62245387 -0.18484256 -0.7203362
000250 70 eb a0 bf d1 46 1f bf b9 e2 fc be 06 c5 bc be
       -1.257185 -0.6221743 -0.49391726 -0.36869067
000260 f7 18 50 bf 4b 94 81 be 3e 14 86 bf c6 66 2c bf
       -0.81288093 -0.2530845 -1.0474927 -0.6734432
000270 a6 3f 40 bf 54 e9 82 bf 31 15 28 bf 18 3f 99 bf
       -0.7509712 -1.0227456 -0.65657336 -1.197238
000280 a3 46 51 bf ce 28 89 bf 78 6a 20 bf 6e 56 60 bf
       -0.8174841 -1.0715578 -0.6266246 -0.8763188
000290 9b a2 84 bf 1b b5 46 bf 89 0f e4 be 4a 79 e2 bf
       -1.0362123 -0.77620095 -0.44543102 -1.7693264
0002a0 2c cd 2b bf a0 9a 42 bf 48 01 68 bf c0 99 75 bf
       -0.6710994 -0.7601719 -0.90626955 -0.9593773
0002b0 6c 07 82 bf 20 38 61 bf b8 a2 0b bf f7 3c a8 bf
       -1.0158515 -0.87976265 -0.54545164 -1.3143605
0002c0 d9 13 5f bf a1 60 5a bf cc 2c 14 be 95 28 4e bf
       -0.8713966 -0.85303694 -0.14470214 -0.80530673
0002d0 3d 07 14 bf 48 75 03 bf e2 e4 25 bf 08 fb 42 bf
       -0.57823545 -0.5135083 -0.6480237 -0.76164293
0002e0 8c b7 8a bf 9d 5e 30 bf 33 c9 31 be 51 f0 35 bf
       -1.0837264 -0.6889437 -0.17361908 -0.7106982
0002f0 17 32 54 bf 31 ce 80 bf 75 54 17 bf 1b 14 a1 be
       -0.8288893 -1.0062925 -0.59113246 -0.31460652
000300 6b 4f 93 bf 7d 35 6d bf f3 7c 1c bf b8 16 86 bf
       -1.1508611 -0.9265974 -0.6112816 -1.0475683
000310 4c c4 16 bf d0 60 88 bf 49 6b bf bf d2 52 92 bf
       -0.58893275 -1.0654545 -1.4954616 -1.1431525
000320 a3 c9 7d bf ac 08 6a bf 7f 08 13 bf 2a 9d 41 bf
       -0.991358 -0.9141948 -0.5743484 -0.7563044
000330 79 7a 8a bf bc 79 f8 be 30 d9 22 bf f1 59 26 bf
       -1.0818626 -0.48530376 -0.6361265 -0.6498099
000340 3c cd 92 bf d1 24 0a bf 7d fd e7 be c7 77 28 bf
       -1.1468883 -0.5396243 -0.45310584 -0.65807766
000350 0f 97 43 bf 7d fe 12 bf c2 16 37 bf b2 ec c9 bf
       -0.7640237 -0.5741957 -0.715191 -1.5775359
000360 54 6f 7b bf 75 48 69 bf 80 55 46 bf c0 da f0 be
       -0.9821675 -0.91126186 -0.7747421 -0.47041893
000370 3b c1 90 bf a9 34 3c bf 70 0b f7 be 39 b6 0b bf
       -1.1308969 -0.73517853 -0.48250914 -0.54574925
000380 74 48 76 bf f4 3e d8 be 2a 71 85 bf a2 80 5a bf
       -0.96204305 -0.4223553 -1.042516 -0.8535253
000390 4f f1 39 bf 8f f4 02 bf fa df bb bf 28 a8 35 bf
       -0.7263383 -0.51154417 -1.4677727 -0.7095971
0003a0 a3 f3 84 bf 37 ce 43 bf 5e c7 2a bf eb bc 74 bf
       -1.0386852 -0.76486534 -0.6671046 -0.95600766
0003b0 be 20 0d bf fd 68 25 bf 45 51 3c bf da 0f 35 bf
       -0.55128086 -0.64613324 -0.7356151 -0.7072731
0003c0 ae c7 2c bf 2c dc 80 bf 29 d6 56 bf 4a 91 39 bf
       -0.6749219 -1.0067191 -0.8392053 -0.7248732
0003d0 b4 28 00 bf 6e 79 39 bf 4d 00 88 bf a1 cd 20 bf
       -0.5006211 -0.7245091 -1.0625092 -0.62813765
0003e0 bf b1 73 bf 2d 39 3c bf a9 9e 6c bf 90 e3 02 bf
       -0.95193094 -0.73524743 -0.92429596 -0.5112848
0003f0 b8 ff 53 bf c5 05 6f bf 17 a4 c6 be d1 c3 f3 be
       -0.8281207 -0.9336818 -0.38797066 -0.47610334

transformer_encoder.layers.0.linear2.weight f4 [16, 1024]
000000 f4 47 03 3f bf ac 45 bf be 02 20 bf 83 ae 85 c0
       0.51281667 -0.77216715 -0.62504184 -4.1775527
000010 b1 46 0b c0 30 66 92 be 8f 7a 59 bf 0a 92 f5 c0
       -2.1761897 -0.28593588 -0.84952635 -7.674077
000020 3f a8 e7 3e d6 8f 98 bd 81 5f cf 3e 51 71 91 be
       0.4524555 -0.074493095 0.4050255 -0.28406766
000030 82 ea e7 be 63 0e af bd 3b 0b 06 bf 62 29 bf 3e
       -0.45296103 -0.08547666 -0.52360886 0.3733626
000040 ab 4f d4 3e c3 95 13 bf 61 9b d1 3f 53 eb 58 3f
       0.41467032 -0.57650393 1.6375543 0.84734076
000050 10 a5 93 3f 2f 27 d8 bb ef 7d e5 3f 82 c9 95 3e
       1.1534748 -0.006596468 1.7929057 0.292553
000060 20 01 87 3e 0e 51 d5 bf 05 b3 0e bf bc 91 fa 3e
       0.26368046 -1.6665361 -0.5574191 0.48939312
000070 ef 9b 10 3f e9 cd 94 3c 1c 09 31 be 3f a5 8d be
       0.56487936 0.018164592 -0.17288631 -0.27665135
000080 da c2 c2 be bb 7d b9 be 80 c0 58 3f ee 47 99 3f
       -0.38039285 -0.36228737 0.8466873 1.1975076
000090 ab be 7a 3f c0 1d ec bf df d7 f6 bd 4a 5a 24 3f
       0.97947186 -1.8446579 -0.12052893 0.6420027
0000a0 d8 ae 4c c0 db 95 8b bf 4c 6a c8 3f 8d 6d 13 be
       -3.1981716 -1.0905107 1.5657439 -0.14397259
0000b0 86 1e 4f 40 ce 46 8b c0 47 e6 d6 3f 8d b4 3b 3e
       3.236238 -4.352393 1.6789025 0.18330593
0000c0 39 8d b4 3f a0 7d 8e bf 71 2e 6c 3f d7 7b 74 3e
       1.4105598 -1.1132088 0.92258364 0.23875366
0000d0 77 29 60 3c 33 1a dc be f1 66 2c be 85 7d 73 3f
       0.013681761 -0.42988738 -0.16836144 0.951134
0000e0 46 da f8 bf 7a ed 3a be 5a d5 f2 be 63 76 34 3f
       -1.9441612 -0.18254653 -0.474284 0.70493144
0000f0 e9 3b 9d 3e 2b 2d 16 3f e0 1f aa 3f 26 b1 55 3f
       0.3070977 0.5866267 1.3290977 0.8347343
000100 1e 4f 3b be 08 7b 12 c0 20 ea 85 3e a7 28 b3 bd
       -0.182919 -2.2887592 0.26155186 -0.08747988
000110 5c bd 44 be 57 20 16 c0 23 22 36 c0 14 71 4f c0
       -0.1921286 -2.3457239 -2.8458335 -3.2412767
000120 d6 46 e3 3e 5c 6e 36 bf fe 62 74 bf 14 6e 8e bf
       0.4438998 -0.71262145 -0.9546355 -1.1127343
000130 4e ea 17 3e 5e 81 ce be 13 18 b2 be 42 bf c5 3e
       0.14835474 -0.40333074 -0.34783992 0.3862248
000140 c3 f8 dc 3e 7d 34 96 bf 90 fe 34 3f 6c 49 37 40
       0.4315854 -1.1734768 0.7070093 2.8638563
000150 bb ad 03 3f 52 76 33 bf f8 f8 15 bf 71 3a c5 3e
       0.51436967 -0.7010242 -0.5858302 0.3852115
000160 7a e4 25 40 c9 88 38 40 96 99 a5 bd 9d 69 78 3e
       2.59207 2.8833487 -0.08085935 0.24259038
000170 92 62 16 40 cf e1 01 40 90 a7 4b bf 49 c2 1d 40
       2.3497663 2.0294073 -0.79552555 2.4649832
000180 3a d2 5e bf c6 0d 6c 3f 0d 99 2f be 44 e0 1f 3f
       -0.8703953 0.92208517 -0.17148228 0.6245158
000190 dd d4 42 bf 33 e0 56 be 6c 2c 00 40 89 9e 09 40
       -0.76106054 -0.20983963 2.0027113 2.1503012
0001a0 7c 56 f0 bd ba a5 bc 3f fe 6f d0 3e 9e 78 8f bd
       -0.117352456 1.4738076 0.40710443 -0.07005428
0001b0 92 30 e6 be 9c d1 b4 bd 87 89 32 3f 8a 97 28 be
       -0.4495893 -0.08829042 0.697411 -0.16464058
0001c0 2d df 1d bf bf b1 d3 3e 19 bf 06 c0 d1 8a 3a 40
       -0.61668664 0.41346547 -2.1054137 2.9147227
0001d0 3c ae 6b 3d 23 64 b3 3e 39 3b 23 be 1b 0b 17 40
       0.05753921 0.35037336 -0.1594056 2.3600528
0001e0 dd 20 e1 be aa 63 65 40 c9 29 ee be 50 6b 08 be
       -0.43970385 3.584208 -0.46516255 -0.13322186
0001f0 35 e0 91 be e1 d1 80 bf ff 26 1e 3f 0f e9 ad 3f
       -0.2849137 -1.006405 0.61778253 1.3586749
000200 0a 79 d1 be fa 99 2a 40 09 ab 75 40 6a bb 0d bf
       -0.40912658 2.665648 3.8385642 -0.55364096
000210 8e df 0d be 59 9a 23 40 6b 88 7b bc 66 c4 69 bf
       -0.1385481 2.5562956 -0.015352349 -0.91315305
000220 22 b3 f7 be d8 24 c7 be b5 24 0f 40 3b 18 3a 3f
       -0.48378855 -0.38895297 2.2366154 0.7269322
000230 c6 0f 81 3e 8d a5 76 40 ee 56 d7 bf 6d 10 38 40
       0.25207347 3.8538544 -1.6823404 2.8760026
000240 98 a8 d4 bf e8 99 b2 3e ab 72 a8 be 7d 82 cb 3f
       -1.6613951 0.34883046 -0.32899985 1.5899197
000250 e2 11 57 c0 0d 47 49 3f a6 8d 22 bf 99 7d 64 3e
       -3.3604665 0.7862404 -0.6349739 0.22313537
000260 38 c7 e7 3e c0 9b 85 bf 15 47 a5 3e 9a 4b bd bf
       0.4526918 -1.0438156 0.32280794 -1.4788697
000270 55 85 96 3e 35 5e 9d bf 2b b5 08 3e a3 83 0b 40
       0.293986 -1.2294375 0.1335036 2.1799095
000280 53 72 90 c0 f3 bb 1b bf a2 31 2a be 07 4c 1e 40
       -4.5139556 -0.6083366 -0.16620496 2.4733903
000290 31 56 d2 be af 7b 38 3f 40 5b cd 3e dc 24 02 be
       -0.41081384 0.72063726 0.4010868 -0.12709373
0002a0 ab 7a 16 40 69 25 4e bf d9 48 f8 bf 41 bf c4 3f
       2.351237 -0.80525833 -1.9397231 1.5370866
0002b0 b1 99 f5 3f ca 64 65 3f 77 79 a5 bf 7d ff a7 c0
       1.9187528 0.89606917 -1.2927693 -5.2499375
0002c0 0b 78 ef 3e 13 51 d6 be 85 cb af 3e ec 26 ae 3f
       0.46771273 -0.4185873 0.3433496 1.3605628
0002d0 39 10 08 bf fe b8 1b bf df 58 df bd e3 84 c5 3f
       -0.53149754 -0.6082915 -0.10905623 1.5431179
0002e0 cf ac 97 c0 1e cf 3c bf 03 49 47 3f f2 3d d3 bc
       -4.739845 -0.73753536 0.7784578 -0.025786374
0002f0 4f d8 eb bf 02 38 46 c0 53 00 49 3f 68 59 f0 3d
       -1.8425387 -3.0971684 0.7851612 0.11735803
000300 01 79 20 c0 75 18 3a be cc 11 ef 3f 83 b5 fc bf
       -2.5073855 -0.18173392 1.8677306 -1.9742893
000310 35 c2 a0 be 5d 5c 04 bf a3 5a 1a c0 19 37 1c 40
       -0.31398168 -0.51703435 -2.411782 2.440863
000320 23 30 2d bf df 04 59 40 65 80 f3 3e 91 2b 19 c0
       -0.67651576 3.3909223 0.47558895 -2.393284
000330 62 4d 8d bf eb bb 88 bd 7f 00 7f 3e e7 af af bc
       -1.103924 -0.066764675 0.24902533 -0.021446181
000340 06 0c 91 3f a0 4a d4 3c 84 fd 91 3e f6 68 59 3e
       1.1331794 0.02591449 0.2851373 0.21231446
000350 7a c1 e0 be 06 78 60 bd 0c 58 65 3e 90 23 7f bf
       -0.4389761 -0.054801963 0.22396868 -0.9966364
000360 ad 92 58 bf eb eb b7 bf 80 be 0f 40 51 5f 39 3c
       -0.8459881 -1.4368871 2.2460022 0.011314229
000370 e1 49 10 40 df 68 4d 3f 54 2d 8c be 8a ff ad be
       2.2545092 0.80238146 -0.27378333 -0.33984023
000380 3b 31 7d 3f 59 4f 85 be aa 30 b8 be e6 c0 8d 3e
       0.98903245 -0.260371 -0.35974628 0.27686232
000390 87 2c 1e be 48 de 36 3f dc bb 38 40 25 eb 90 be
       -0.15446673 0.71432924 2.886466 -0.283044
0003a0 9e 4b 8a 3e a6 80 01 40 2d da 2f be 34 d9 be bf
       0.27010816 2.023477 -0.17173071 -1.4910035
0003b0 43 a9 b2 3e cf e8 1e 3e 72 23 d9 3f 46 6a 5e be
       0.3489476 0.15518497 1.6963942 -0.21720228
0003c0 0c 1a d3 3f be b7 ba be 48 70 37 3e b0 26 5c be
       1.6492324 -0.3646831 0.17913926 -0.21499133
0003d0 bc 31 a8 be 15 63 c8 be ce 87 8e 3f 9a 4c 6b 3e
       -0.32850444 -0.39138094 1.1135194 0.2297844
0003e0 eb 3a 0c 40 61 ee 86 3f d5 90 91 bf 86 57 4f c0
       2.191096 1.0541497 -1.1372324 -3.239717
0003f0 d9 72 8e 40 8e d9 dc bf 95 5a a6 3e b2 e1 b9 bf
       4.4515195 -1.7253892 0.32490984 -1.4522002

transformer_encoder.layers.0.linear2.bias f4 [16]
000000 12 e3 1a be e1 b3 67 bd d4 e0 3a bb ba 6a 98 bb
       -0.15125683 -0.05656803 -0.0028515356 -0.0046513947
000010 9a d1 9c bc 6b f1 3d bb fd 7d 16 bd d3 9c 0d bc
       -0.019142915 -0.0028983008 -0.036741246 -0.008643347
000020 12 58 2a bb a3 d2 07 bc d8 4c 07 bc 20 07 17 3c
       -0.0025992435 -0.008289966 -0.008258067 0.009218007
000030 9a 57 37 3d 99 67 fe 3c 3c 6d 0f 3c b5 bd 22 3d
       0.044761278 0.031055259 0.008754071 0.0397317

transformer_encoder.layers.0.norm1.weight f4 [16]
000000 0a c6 72 3f e9 b2 01 3f e1 aa 55 3e 3e 7e 78 3e
       0.94833434 0.5066362 0.20865966 0.24266908
000010 18 f6 cf 3e 6e 0b 8e 3e af 81 c6 3e fa 18 18 3f
       0.40617442 0.27743095 0.38770816 0.5941311
000020 d9 d6 2c 3e c6 4e 30 3f 57 21 90 3e 94 6e 95 3e
       0.16878833 0.688702 0.28150436 0.29185927
000030 95 5a 0e 3f a6 7c e5 3e f0 d8 09 3e 55 a8 1a 3e
       0.5560697 0.44821662 0.13461661 0.15103276

transformer_encoder.layers.0.norm1.bias f4 [16]
000000 75 d2 c2 3f 43 f0 f0 be aa 67 03 3d 85 cf fa bd
       1.5220476 -0.47058305 0.032081284 -0.122466125
000010 f6 c8 09 bc c7 ae 86 bd 24 2b e6 3c 7c b9 5c be
       -0.008409729 -0.06576305 0.028096743 -0.21555132
000020 c5 65 b8 bc 4c 19 6a 3e 11 69 c6 3d 8e 4e 18 be
       -0.022509465 0.22861212 0.096880086 -0.14873716
000030 08 da f8 3e 33 6e 1c bf a0 c3 a3 bd 76 37 c2 bd
       0.48603845 -0.6110565 -0.07996297 -0.094832346

transformer_encoder.layers.0.norm2.weight f4 [16]
000000 f4 99 99 3e 00 94 84 3e 4e 54 87 3f 28 a3 7e 3f
       0.3000027 0.25894165 1.0572603 0.99467707
000010 9b 4f 5c 3f 03 fa 81 3f 32 aa c3 3f 70 41 8c 3f
       0.8605897 1.0154423 1.5286314 1.095747
000020 19 29 7e 3f 91 70 8c 3f 28 88 c6 3f 9e 85 90 3f
       0.9928146 1.0971853 1.5510302 1.1290777
000030 3e a1 87 3f f7 b9 87 3f bf 0c 5c 3f b6 f8 79 3f
       1.0596082 1.0603627 0.8595695 0.9764513

transformer_encoder.layers.0.norm2.bias f4 [16]
000000 41 48 80 bf 24 cf a2 3e 7a e7 1a 3e 8c 77 ed 3d
       -1.002205 0.3179866 0.15127364 0.115950674
000010 39 e6 02 be 17 fa 41 3e df 6a 27 3e ae 7d 0d 3d
       -0.12783135 0.18943058 0.16349362 0.034543686
000020 a2 5d 4e 3e 3b f4 89 3e 03 26 5f 3e ec 00 10 3e
       0.20152906 0.26944146 0.21791844 0.14062852
000030 75 34 7d 3e 76 d7 91 3e 7f 15 cf 3d 07 98 85 3e
       0.24727042 0.28484696 0.10111522 0.2609255

fc.weight f4 [17, 400]
000000 a8 9c 38 3f 05 17 04 bf 94 cf 25 bf bf 65 1f 3f
       0.7211404 -0.51597625 -0.64769864 0.6226463
000010 e6 fe 0d 3f bc 63 0c be 55 f2 31 3f 5e f9 1d 3f
       0.5546707 -0.1370992 0.69510394 0.6170863
000020 6f e3 9f be 7d 8b 37 bf e9 76 06 bf ab 79 fa 3e
       -0.31228206 -0.7169722 -0.5252519 0.4892095
000030 2f 3b 6b 3f 8d 44 27 bf 62 73 c3 be 53 28 71 bf
       0.9188718 -0.65338975 -0.38173968 -0.94202155
000040 a0 c6 30 3e 43 2b e9 be 76 b4 00 bf ee 7d 21 3f
       0.1726327 -0.4554082 -0.5027536 0.6308278
000050 95 0c 3a 3f 85 a4 db 3e f1 a9 a5 3e 3f eb af 3d
       0.7267545 0.42898956 0.32356218 0.085897915
000060 cb 6b 08 3f 8f 99 23 bf df 76 ed be 28 18 b2 bd
       0.5328948 -0.63906187 -0.46379754 -0.08696014
000070 2c 32 c0 be 1c 15 1a bd b2 8e 8e 3e 19 f2 64 3e
       -0.37538278 -0.037617788 0.27843243 0.22357978
000080 49 7e ff 3e f4 93 78 bf 3c c8 d4 3e cc a3 81 be
       0.49901035 -0.9710076 0.41559017 -0.2532028
000090 70 7c 89 3e 09 5f 81 3f a5 82 1e 3f 24 06 bc 3d
       0.2685275 1.0107127 0.619181 0.09180859
0000a0 d4 8f 02 bf c4 37 94 be 1a 3d 64 3e 2f 31 ae 3e
       -0.51000714 -0.28948796 0.22288933 0.340219
0000b0 f0 3b 11 3f 00 b8 27 bf 57 d8 6a bc 74 6e 38 be
       0.5673208 -0.65515137 -0.014333806 -0.18010885
0000c0 6d 76 fe 3d cb d7 e7 be 3c 9f 26 3e e2 b2 6c 3f
       0.12424932 -0.45281824 0.1627168 0.92460454
0000d0 be cc 48 3f f9 78 24 3d d5 9b ea be 3e a8 8f be
       0.7843741 0.04015443 -0.45822015 -0.28058046
0000e0 ed 50 ec 3d 56 7e ab 3f 9c 9f 89 3e 66 a3 0d bf
       0.11538873 1.339793 0.26879585 -0.5532745
0000f0 89 84 84 3f 8c f2 cd 3d 71 8c 76 bf 1b 01 9a bf
       1.0352947 0.10056028 -0.96308047 -1.2031587
000100 77 96 0a 3d 9a 04 2d bf f3 9d 31 bf 10 9c 76 3f
       0.0338349 -0.67585146 -0.69381636 0.9633188
000110 49 12 a2 3f ca e0 2b 3f 4a 6c 82 bf 1e c1 78 be
       1.266183 0.67139876 -1.0189297 -0.24292418
000120 dd 50 3c 3f 7c 4e 1d 3e da 70 24 3f 56 49 76 3e
       0.7356089 0.1536197 0.642347 0.24051413
000130 56 05 62 bf 71 44 65 3d b9 99 1d 3f 25 a8 1c be
       -0.8828939 0.055973474 0.6156269 -0.15298517
000140 18 5a 85 3f 7f 6d 5c bf 2f 44 3b bf cb 55 0d bc
       1.041812 -0.8610458 -0.73150915 -0.008626412
000150 38 4d 4b 3f 52 8a 9a bf 42 03 50 3f 91 b8 83 3f
       0.794147 -1.2073462 0.8125497 1.02907
000160 93 e8 10 3f 4e 30 0f bf 17 22 e9 be 91 2e f6 3d
       0.5660488 -0.5593308 -0.4553382 0.120206006
000170 5b 03 e6 3e ba 4e 27 bf e6 62 d8 bc 06 5a c7 3d
       0.44924435 -0.653545 -0.026414346 0.097339675
000180 f2 d0 ea 3d 8d 41 10 3e 69 ad 48 bf 04 c3 85 bf
       0.114656344 0.14087506 -0.783896 -1.0450139
000190 fa 37 54 3f 7d 5a 16 3e f5 11 6a 3f 3c 4a 3d bb
       0.82897913 0.14682956 0.9143365 -0.0028883358
0001a0 a4 42 60 3e fd d9 c2 be da 24 cd bd 28 18 c9 3e
       0.21900421 -0.38056937 -0.100167945 0.39276242
0001b0 8b a3 86 bd bd 62 9e be ce a6 73 3d 98 f6 b6 bc
       -0.06574162 -0.30934706 0.05948525 -0.022334382
0001c0 6a 81 12 3d 90 d4 53 be 60 7a bb 3d 61 1f f2 be
       0.03576795 -0.20686555 0.091542006 -0.47289565
0001d0 f3 fb d4 3e 8d 65 6a 3f 43 ca 37 3f 52 60 9c be
       0.41598472 0.91561204 0.71793 -0.30542237
0001e0 32 7f 9f be bc ef ac be b2 70 04 3f 2b 9f 91 3e
       -0.3115173 -0.33776653 0.5173446 0.28441748
0001f0 f3 25 99 3d c1 0b a7 bf 01 8e 8c bd 58 02 10 3f
       0.07477941 -1.3050462 -0.068630226 0.56253576
000200 1b 2f 3d bf f4 65 55 3f 72 7d bb 3f ae 23 51 3f
       -0.739 0.83358693 1.4647658 0.8169507
000210 ef 09 03 be a1 66 48 be d5 00 13 bf b9 0d 71 bf
       -0.12796758 -0.195704 -0.57423145 -0.94161564
000220 bf c6 82 3e be c7 7f be b1 51 a1 3e 03 1d cc be
       0.25542256 -0.2497854 0.31507638 -0.39865884
000230 9c 3e d7 be 59 8d 18 3f 0e e9 b2 3e 86 41 e1 3c
       -0.42039955 0.5959068 0.34943432 0.027497064
000240 e3 d8 6b bf fe f3 67 3f 8d 23 92 bf 12 c4 1a 3f
       -0.9212782 0.9060668 -1.1417099 0.6045543
000250 08 a6 c3 3f f9 72 71 3d 2c a1 25 bf 79 70 a5 be
       1.5285044 0.058947537 -0.64699054 -0.32312372
000260 46 06 d5 be 2d 39 32 3f 88 67 77 3f 56 88 08 be
       -0.4160635 0.69618493 0.9664235 -0.13333258
000270 cf 08 c2 be 00 9c 17 3f 40 43 fc bd 65 63 5b 3e
       -0.37897345 0.5922241 -0.123175144 0.21424635
000280 6d ca f1 3e 99 87 50 be c4 d8 1a 3e d0 36 d1 be
       0.4722475 -0.20364226 0.15121752 -0.4086213
000290 cb ff 54 3f 4b 2d 7b bf 1d 30 f8 3e 37 40 61 3e
       0.8320281 -0.98115987 0.48474208 0.21997152
0002a0 6b 32 b0 bd 5f fc 83 bd 0b 69 43 bf cd 8f fa 3e
       -0.086033665 -0.0644462 -0.7633216 0.48937836
0002b0 31 29 c9 bb 07 e0 8c be 5d 54 21 3e dc 0d 04 bd
       -0.0061389436 -0.2751467 0.15754838 -0.03223978
0002c0 2f 31 f7 3e 35 27 cf bd d8 ee 4f 3e de 23 be be
       0.48279712 -0.101149 0.20305955 -0.3713674
0002d0 dc 16 8d 3e b1 aa b5 3e e8 d4 fa bd 28 59 c0 bd
       0.27556503 0.3548179 -0.1224764 -0.09392005
0002e0 20 e5 d1 3e 8e 7e 58 bf 36 4d c6 be 5e de 17 be
       0.4099512 -0.8456811 -0.38730782 -0.1483092
0002f0 c4 d1 05 3f 61 99 cd be f7 ba 69 be 73 7e 99 3e
       0.522732 -0.4015608 -0.22825228 0.29979286
000300 51 93 8e be 1d 47 a5 3e 2e ca 50 be e1 52 96 bd
       -0.27846768 0.32280818 -0.20389625 -0.07340027
000310 dc fc 19 3e 36 31 a4 3e a2 30 bc be 6e ec 0d be
       0.15037864 0.32068795 -0.36755854 -0.13859722
000320 8b a2 6f 3f f4 d7 7f bf f2 98 ec 3e d1 cf ab be
       0.93607396 -0.99938893 0.46210438 -0.3355699
000330 7a 41 d4 be 4c 96 81 be e0 e7 5d 3f cb 9c 8d be
       -0.41456205 -0.2530998 0.8668194 -0.27658686
000340 13 58 1d bf d2 76 ce 3e e6 32 c6 3d fc a6 b3 3d
       -0.61462516 0.40325028 0.09677677 0.08772084
000350 57 54 0c bf 8d 5b 7d bf fe e6 55 3d 23 b9 dd 3e
       -0.5481619 -0.9896782 0.052222244 0.4330531
000360 b9 98 aa 3f a5 80 46 3e 97 b9 1b 3f 50 f8 01 bf
       1.3327857 0.19385011 0.6083006 -0.5076952
000370 65 51 70 bf ad 62 70 3f 67 b5 a4 be 12 ec 89 3f
       -0.938742 0.9390057 -0.3216965 1.0775168
000380 79 a5 bd be 7e 2d ea bd a1 75 10 3d c7 17 43 be
       -0.37040308 -0.11434458 0.03526843 -0.19052039
000390 4a 9e 07 bf 5c 3f 90 3f 8c d0 21 be 52 db 45 3f
       -0.52975905 1.1269336 -0.1580221 0.7728778
0003a0 ae e3 fd be eb 17 4c 3d c4 e4 78 3f 56 92 46 3f
       -0.49587768 0.049827497 0.9722407 0.7756704
0003b0 d8 8c a8 bf fc 57 31 3f bf d7 72 be 00 0c 0e 3f
       -1.3167982 0.6927488 -0.23715113 0.5548706
0003c0 8f ee 6d 3f cd 13 57 bf 66 76 c6 3f 7f e6 f4 bd
       0.92942137 -0.8401459 1.5504882 -0.11958026
0003d0 6b e8 0c bd 63 ea ae be 7d 0f 86 3f 8d 58 2b bf
       -0.03440134 -0.34163198 1.0473477 -0.6693199
0003e0 a4 6b 7a 3f 5b d4 84 bf e3 39 1c bf de 4d 02 3d
       0.97820497 -1.0377306 -0.6102583 0.03181254
0003f0 27 4f 78 3e 3e 4e f0 be f5 ff 43 be b9 71 bf 3c
       0.24248944 -0.46934694 -0.19140609 0.023369657

fc.bias f4 [17]
000000 28 96 33 be 2a df b7 be 63 99 9d 3d d5 7a 9a be
       -0.17537749 -0.35912448 0.07695272 -0.30171838
000010 fd 51 6a be ff d1 0a c0 5a af 86 bf f3 c0 b4 be
       -0.22882839 -2.1690671 -1.0522263 -0.3530346
000020 95 9a d4 3e 0a d5 20 3f 4e 77 20 40 5f 3d a2 3d
       0.41524187 0.6282507 2.5072818 0.07921862
000030 35 7b 00 bf d3 d4 6f 3f 2d be d8 3e ad 86 30 bf
       -0.50188 0.9368412 0.42332593 -0.689555
000040 6e c1 f4 c0
       -7.648612
