models/3_layers_petit.pt (torch, 102926 bytes, 39 tensors)

embedding.weight f4 [4, 32]
0	0xbf6683d1	-0.90044886
1	0xbf8a87cc	-1.0822692
2	0x3eabafe3	0.33532628
3	0xbe404aeb	-0.18778579
4	0x3f3f8e04	0.74826074
5	0xbfa276e9	-1.2692538
6	0x3f8a003c	1.0781322
7	0x3f1da6a4	0.615824
8	0x3f013696	0.50473917
9	0xbf0abb7d	-0.54192334
10	0xbed460f5	-0.41480222
11	0xbd48e20f	-0.04904371
12	0xbee4553b	-0.44596276
13	0xbfc7ada2	-1.5599864
14	0x3eecf568	0.4628098
15	0xbf2ba24f	-0.6704454
16	0xbfa603b2	-1.2969878
17	0xbe2141cb	-0.15747754
18	0x3e14ec67	0.14543305
19	0x3f490581	0.78524023
20	0xbf6a40f1	-0.9150534
21	0x3e5f0828	0.21780455
22	0x3f1670c5	0.5876582
23	0xbd7e54fd	-0.06209277
24	0x3f4aaaa2	0.79166615
25	0x3ec661b2	0.3874641
26	0xbe9c8a23	-0.3057414
27	0xbe32dc93	-0.17466955
28	0xbea51e12	-0.32249504
29	0xbf7ae93c	-0.9801214
30	0x3e413dd5	0.18871243
31	0x3d471108	0.048600227
32	0xbece5de1	-0.40306
33	0x3f44261e	0.7662066
34	0xbf8ecb03	-1.1155704
35	0x3ee2ed79	0.44321802
36	0x3f0ecb12	0.5577861
37	0x3ffe765b	1.9879869
38	0xbe1a30e5	-0.15057714
39	0x3e4389fd	0.19095607
40	0xbfbdc98d	-1.4827133
41	0x3f8da195	1.1064936
42	0x3f03cc4b	0.514836
43	0x3f9529b2	1.1653349
44	0x3ec343ba	0.3813761
45	0xbf0d4572	-0.5518409
46	0x3f0fdba1	0.561945
47	0xbd07ed68	-0.033185393
48	0x3f72baef	0.9481649
49	0x3f53ca2d	0.8273037
50	0x3e7a5787	0.24447452
51	0x3eec451d	0.4614648
52	0xbf25dcca	-0.6479002
53	0x3f8e62fc	1.1123958
54	0xbfa6d8df	-1.3034934
55	0xbda04ed3	-0.078275345
56	0x3fb5b0d8	1.4194593
57	0x3f1df996	0.6170896
58	0xbfbd38d2	-1.4782965
59	0xbfdad901	-1.7097474
60	0x3eab4e86	0.33458346
61	0x3e1e622b	0.15467136
62	0xbff9f872	-1.9528944
63	0x3d68adfb	0.056806546
64	0x3f65dda1	0.89791304
65	0x3f80df3e	1.0068128
66	0x3eff91e4	0.49915993
67	0x3dfcef2d	0.12350307
68	0xbfd08c8d	-1.6292893
69	0xc012c21f	-2.2930982
70	0xbec1523b	-0.3775805
71	0x3f9f3787	1.2438821
72	0xbd0e38dc	-0.034722194
73	0x3f497fa2	0.7871038
74	0xbce041bf	-0.0273751
75	0x40206363	2.506066
76	0xbf38db7f	-0.72209924
77	0xbf725d6b	-0.94673795
78	0x3e070f83	0.13189511
79	0xbe6a8058	-0.22900522
80	0x3e0b18ed	0.13583727
81	0xbf3f484f	-0.7471971
82	0xbc732923	-0.014841351
83	0xbf52644f	-0.8218431
84	0x3d5a67e2	0.053321727
85	0xbf283292	-0.65702164
86	0xc0304b0a	-2.75458
87	0xbe9f066c	-0.31059587
88	0x4004aec6	2.0731673
89	0x3d6f2a17	0.05838975
90	0x3fca14cf	1.57876
91	0x3f02a8f8	0.51039076
92	0xbee19426	-0.4405834
93	0x3ec16457	0.37771866
94	0xbf101a22	-0.56289876
95	0xbf55a0f1	-0.834487
96	0xbf4fcd53	-0.81172675
97	0x3f3e392c	0.7430599
98	0xbe4d421f	-0.20044754
99	0xbf7e8537	-0.9942202
100	0xbeea5cf5	-0.45774046
101	0xbdf524df	-0.11969923
102	0xbfa726ff	-1.3058776
103	0x3f062156	0.52394617
104	0xbeb0b453	-0.34512576
105	0xbf8629e4	-1.0481534
106	0x3fa21873	1.2663711
107	0x3df4c038	0.11950725
108	0x3f782804	0.9693606
109	0xbec014a9	-0.37515762
110	0xbeb4793e	-0.3524875
111	0xbedc48b5	-0.4302422
112	0x3eecf079	0.46277216
113	0xbfa551f1	-1.2915632
114	0xbe19e0b7	-0.15027128
115	0xbf517729	-0.8182245
116	0x3de520bb	0.111878835
117	0xbf8f54f0	-1.1197796
118	0x3e01552c	0.12630147
119	0xbf380329	-0.7187982
120	0x3f25c80a	0.6475836
121	0xbeeaa84a	-0.4583152
122	0x3f27a77d	0.6548994
123	0xbf0bd6f2	-0.54624856
124	0x3f499bb1	0.7875319
125	0xbf2b3e63	-0.6689207
126	0x3edf7777	0.43645832
127	0x3fd3df54	1.6552529

decoder_layer.self_attn.in_proj_weight f4 [96, 32]
0	0xbe457b14	-0.19285232
1	0xbdd0a65d	-0.10187981
2	0xbd2be260	-0.041963935
3	0xbe4970c3	-0.19671921
4	0xbe2b39bf	-0.16721247
5	0xbdcecce7	-0.10097676
6	0xbe4ee65a	-0.2020506
7	0x3e364a0f	0.17801689
8	0xbc21ef40	-0.009883702
9	0xbb1ca240	-0.002390042
10	0x3da8dcb6	0.08245222
11	0xbd893ffe	-0.06701659
12	0xbdc0fa7c	-0.09422776
13	0xbe44825a	-0.1919035
14	0xbc1af660	-0.009458154
15	0xbd173cd4	-0.036923245
16	0xbcc166f0	-0.023608655
17	0x3daadc9e	0.08342861
18	0x3e44fd07	0.19237147
19	0xbde7c58d	-0.11316977
20	0x3c8e8a08	0.017399803
21	0x3dddd6f6	0.10832016
22	0x3dc0df72	0.09417619
23	0x3dc50496	0.09620015
24	0x3e0a21c7	0.13489448
25	0x3e275f63	0.16344981
26	0xbe0b48ce	-0.13601992
27	0x3da35d16	0.07976739
28	0x3df17eea	0.11791785
29	0xbdff2fe2	-0.12460305
30	0xbd811f68	-0.063048184
31	0xbddcb792	-0.10777201
32	0xbd594248	-0.053041726
33	0xbbb10800	-0.005402565
34	0xbe464c7e	-0.19365117
35	0x3ded894e	0.115984544
36	0xbd4f2a10	-0.050577223
37	0xbe51d60f	-0.20491813
38	0xbe0a25b9	-0.13490953
39	0xbdc741b2	-0.09729327
40	0x3d7c5edc	0.061613902
41	0xbccc79f0	-0.024960488
42	0xbe125d89	-0.14293493
43	0xbe316d6e	-0.173269
44	0xbdd17bda	-0.10228701
45	0xbd6ceb64	-0.057841673
46	0x3ddfb58a	0.10923298
47	0x3d9968da	0.07490702
48	0x3d24e0ac	0.040253326
49	0xbd49d968	-0.0492796
50	0xbe23a00a	-0.15979019
51	0x3e370725	0.17873819
52	0x3deaae92	0.11459078
53	0x3dc5cd16	0.09658258
54	0xbe17ed44	-0.14836603
55	0xbdc66e32	-0.09688987
56	0xbe370a36	-0.17874989
57	0x3ab4c500	0.0013791621
58	0x3d1096dc	0.03530012
59	0x3d0a09d4	0.03370078
60	0xbdefe2e0	-0.11713195
61	0xbdef0544	-0.11670926
62	0x3df96f9e	0.121794924
63	0x3a1a8f00	0.00058959424
64	0x3db8d786	0.09025483
65	0x3dccdb8e	0.10002814
66	0xbe3b79a9	-0.18308128
67	0x3d8419aa	0.064502075
68	0x3de34ace	0.11098252
69	0x3e54db21	0.20786716
70	0x3daecae2	0.085347906
71	0x3e53427f	0.20630835
72	0xbc7fc540	-0.015610993
73	0xbd8c09e4	-0.06837824
74	0x3db68c86	0.089135215
75	0xbe2877db	-0.16451971
76	0x3d87963a	0.0662045
77	0xbdc24e33	-0.094875716
78	0xbdd380a0	-0.10327268
79	0xbca6dec0	-0.020369887
80	0x3e27b993	0.16379385
81	0x3de0e6ca	0.109815195
82	0xbdddd299	-0.10831184
83	0x3e4d8f1f	0.20074128
84	0x3e4e2a93	0.20133428
85	0x3e17acf1	0.14812066
86	0xbe2a518d	-0.16632672
87	0x3d540f04	0.051772133
88	0xbe40950e	-0.1880686
89	0xbd11f690	-0.03563553
90	0x3e3daba9	0.18522514
91	0x3df0edde	0.117641196
92	0xbe24ac9f	-0.16081475
93	0xbd103248	-0.035204202
94	0x3d751cec	0.059842035
95	0x3def515e	0.116854414
96	0xbe1adc64	-0.15123135
97	0x3e337c8f	0.17527984
98	0xbd032ef4	-0.0320272
99	0xbdf68a14	-0.12038055
100	0x3d1cc0bc	0.038269743
101	0x3dee4d02	0.11635782
102	0x3e35503d	0.1770639
103	0xbdb89c14	-0.090141445
104	0x3e295661	0.16536857
105	0xbd90834e	-0.070562944
106	0x3dcdb77a	0.10044761
107	0xbb8d3920	-0.0043097883
108	0xbe56f4a4	-0.2099176
109	0x3d8cbb1a	0.06871624
110	0xbc93b410	-0.018030196
111	0x3c5804d0	0.013184741
112	0x3e1ae9ad	0.15128203
113	0x3e3c281b	0.18374674
114	0x3d8995f6	0.06718056
115	0x3e17ac49	0.14811815
116	0x3e4258d7	0.18979202
117	0x3e1114f5	0.1416815
118	0x3e2501b7	0.16113935
119	0xbe233974	-0.15939885
120	0xbd36ba50	-0.044611275
121	0x3c273b20	0.010206968
122	0x3e01daa1	0.12681057
123	0x3d8ece42	0.06972934
124	0xbd61976c	-0.055076048
125	0xbdc9ce68	-0.09853822
126	0x3d6f27ac	0.058387443
127	0xbd89b016	-0.06723039
128	0xbe3824de	-0.17982814
129	0xbe0d0858	-0.13772714
130	0x3aa66000	0.0012693405
131	0x3de9411a	0.1138937
132	0x3e297c63	0.16551356
133	0x3e486e45	0.19573314
134	0x3e22ce2f	0.15898965
135	0xbd9d17cc	-0.076705545
136	0x3d7c3ce4	0.061581507
137	0xbe430d4b	-0.1904804
138	0x3db252d6	0.08707206
139	0x3e58bfe9	0.21166958
140	0xbd9216b0	-0.071332335
141	0x3da19546	0.078898
142	0x3e0ebe65	0.13939817
143	0xbe04b918	-0.12961233
144	0xbe46ea34	-0.19425279
145	0xbe3ab6c0	-0.18233776
146	0xbe544042	-0.20727637
147	0xbd9fb438	-0.07798046
148	0x3df4abc2	0.11946823
149	0xbd50edc8	-0.051008016
150	0xbe0fa18d	-0.1402647
151	0xbda2105a	-0.07913275
152	0xbd34d448	-0.04414776
153	0xbd4f5628	-0.050619274
154	0xbe5abc98	-0.21361005
155	0xbe44598e	-0.19174787
156	0xbe0f11d8	-0.1397165
157	0x3d5c9834	0.05385609
158	0x3e4b81c7	0.19873725
159	0x3e2f2df9	0.17107381
160	0xbd515884	-0.051109806
161	0x3d8e371e	0.069441065
162	0x3e02530d	0.12726994
163	0x3e4c8577	0.19972788
164	0xbdb1600a	-0.08660896
165	0xbc7e0c70	-0.015505895
166	0x3d5cde04	0.053922668
167	0xbc48e300	-0.012261152
168	0x3d3050dc	0.043045864
169	0x3d182294	0.03714235
170	0x3da2743e	0.07932328
171	0xbd8a98fe	-0.06767462
172	0x3d1c09f4	0.03809543
173	0xbdfd27cb	-0.123611055
174	0xbd7736f0	-0.060355127
175	0xbdd47f93	-0.10375895
176	0xbe018fe3	-0.12652545
177	0x3e14fb89	0.14549078
178	0xbbdf4400	-0.006813526
179	0x3e59faaf	0.21287034
180	0x3dc1583a	0.09440656
181	0x3d6bc6bc	0.057562575
182	0x3e4bc56d	0.1989953
183	0xbe052648	-0.13002884
184	0xbd697028	-0.056991726
185	0xbe348aa5	-0.17631014
186	0x3e0b2ead	0.13592024
187	0xbe54147c	-0.20710939
188	0xbce3d4c0	-0.027811408
189	0x3d76654c	0.060155198
190	0xbe0f98a0	-0.14023066
191	0x3e2e262f	0.17006753
192	0x3c8f6f08	0.017508999
193	0xbc45eb70	-0.012080058
194	0x3db70e7a	0.08938308
195	0xbdc95167	-0.098299794
196	0xbcb03d18	-0.021513507
197	0xbce2ea90	-0.027699739
198	0x3e33fff5	0.17578109
199	0xbde97c73	-0.1140069
200	0x3d28b81c	0.041191205
201	0xbdcb3aec	-0.09923348
202	0x3d91748e	0.07102309
203	0xbcd17ef0	-0.025573224
204	0xbe1b9a1c	-0.15195507
205	0x3ca92cb0	0.020651191
206	0xbdd15f53	-0.1022326
207	0x3e0a7b33	0.1352356
208	0xbd557734	-0.052115634
209	0x3cdb5898	0.026775643
210	0x3e178f0b	0.1480066
211	0xbe47048a	-0.19435325
212	0xbe5bf193	-0.21478872
213	0x3e31b595	0.17354424
214	0xbe550c82	-0.20805553
215	0xbbf93ec0	-0.0076063573
216	0x3cc970f0	0.024589986
217	0x3e2bba53	0.16770296
218	0x3e1a1fc5	0.15051182
219	0x3d389bd4	0.045070484
220	0xbd84c22a	-0.06482346
221	0xbe1f3372	-0.15546969
222	0x3dafdbd6	0.08586852
223	0xbe368e0c	-0.17827624
224	0x3e229fdd	0.15881296
225	0xbe4d4aed	-0.20048113
226	0xbe5088ae	-0.20364639
227	0xbde7f369	-0.11325724
228	0x3d31db94	0.043422297
229	0x3e55aa13	0.2086566
230	0xbdf80c95	-0.12111775
231	0x3d42860c	0.04749112
232	0x3e4ca1d5	0.19983609
233	0x3d7f1654	0.062277153
234	0x3e0b58ef	0.13608144
235	0x3e0cdf1f	0.13756989
236	0xbe1aa2fe	-0.15101239
237	0x3e3ce589	0.18446936
238	0xbe3eabee	-0.18620273
239	0xbe15fcd0	-0.14647222
240	0x3df2aa3a	0.118488744
241	0xbe055cc7	-0.13023673
242	0xbe234ac5	-0.15946491
243	0x3d8559fa	0.06511302
244	0x3e0264c5	0.12733753
245	0x3c720450	0.014771536
246	0x3de8ba96	0.113637134
247	0xbd37b5e4	-0.0448512
248	0x3d290424	0.041263714
249	0x3df555be	0.11979245
250	0x3d6fc94c	0.05854158
251	0x3e0e7005	0.1390992
252	0x3e1f88ab	0.15579478
253	0x3dbf68f6	0.093461916
254	0x3d19a3a4	0.037509575
255	0xbe000265	-0.12500913

decoder_layer.self_attn.in_proj_bias f4 [96]
0	0x00000000	0.0
1	0x00000000	0.0
2	0x00000000	0.0
3	0x00000000	0.0
4	0x00000000	0.0
5	0x00000000	0.0
6	0x00000000	0.0
7	0x00000000	0.0
8	0x00000000	0.0
9	0x00000000	0.0
10	0x00000000	0.0
11	0x00000000	0.0
12	0x00000000	0.0
13	0x00000000	0.0
14	0x00000000	0.0
15	0x00000000	0.0
16	0x00000000	0.0
17	0x00000000	0.0
18	0x00000000	0.0
19	0x00000000	0.0
20	0x00000000	0.0
21	0x00000000	0.0
22	0x00000000	0.0
23	0x00000000	0.0
24	0x00000000	0.0
25	0x00000000	0.0
26	0x00000000	0.0
27	0x00000000	0.0
28	0x00000000	0.0
29	0x00000000	0.0
30	0x00000000	0.0
31	0x00000000	0.0
32	0x00000000	0.0
33	0x00000000	0.0
34	0x00000000	0.0
35	0x00000000	0.0
36	0x00000000	0.0
37	0x00000000	0.0
38	0x00000000	0.0
39	0x00000000	0.0
40	0x00000000	0.0
41	0x00000000	0.0
42	0x00000000	0.0
43	0x00000000	0.0
44	0x00000000	0.0
45	0x00000000	0.0
46	0x00000000	0.0
47	0x00000000	0.0
48	0x00000000	0.0
49	0x00000000	0.0
50	0x00000000	0.0
51	0x00000000	0.0
52	0x00000000	0.0
53	0x00000000	0.0
54	0x00000000	0.0
55	0x00000000	0.0
56	0x00000000	0.0
57	0x00000000	0.0
58	0x00000000	0.0
59	0x00000000	0.0
60	0x00000000	0.0
61	0x00000000	0.0
62	0x00000000	0.0
63	0x00000000	0.0
64	0x00000000	0.0
65	0x00000000	0.0
66	0x00000000	0.0
67	0x00000000	0.0
68	0x00000000	0.0
69	0x00000000	0.0
70	0x00000000	0.0
71	0x00000000	0.0
72	0x00000000	0.0
73	0x00000000	0.0
74	0x00000000	0.0
75	0x00000000	0.0
76	0x00000000	0.0
77	0x00000000	0.0
78	0x00000000	0.0
79	0x00000000	0.0
80	0x00000000	0.0
81	0x00000000	0.0
82	0x00000000	0.0
83	0x00000000	0.0
84	0x00000000	0.0
85	0x00000000	0.0
86	0x00000000	0.0
87	0x00000000	0.0
88	0x00000000	0.0
89	0x00000000	0.0
90	0x00000000	0.0
91	0x00000000	0.0
92	0x00000000	0.0
93	0x00000000	0.0
94	0x00000000	0.0
95	0x00000000	0.0

decoder_layer.self_attn.out_proj.weight f4 [32, 32]
0	0x3e14565f	0.14486073
1	0xbdd6c68e	-0.1048709
2	0x3e2e1d77	0.17003427
3	0x3cb21290	0.021737367
4	0xbda7a923	-0.08186557
5	0xbce438f8	-0.027859196
6	0xbd856f25	-0.0651534
7	0x3e2885b1	0.16457249
8	0x3da33906	0.07969861
9	0x3e20f9e9	0.15720333
10	0xbe30c5b3	-0.17262916
11	0xbdf75561	-0.120768316
12	0xbdad62d4	-0.084661156
13	0x3e1516f9	0.14559545
14	0xbe2b6f03	-0.16741566
15	0xbe23972d	-0.15975638
16	0x3de09f12	0.1096784
17	0xbdf94ba8	-0.121726334
18	0xbe2eb328	-0.1706053
19	0x3e015a2f	0.12632059
20	0xbe1df173	-0.15424137
21	0x3e240eff	0.16021346
22	0xbbccd300	-0.006250739
23	0xbdea20c2	-0.11432029
24	0xbddc7d5c	-0.10766098
25	0xbdb87dfe	-0.09008406
26	0xbcbe53b8	-0.02323328
27	0xbe0e4586	-0.13893709
28	0xbbeb2540	-0.0071760714
29	0x3e2992af	0.16559862
30	0xbc50c620	-0.012742549
31	0xbcb9eae0	-0.022695005
32	0x3dc66afa	0.09688373
33	0x3cd9a5c0	0.026568294
34	0xbe2a8b6a	-0.16654745
35	0x3d831df6	0.06402199
36	0x3d2d5440	0.042316675
37	0x3b376f40	0.0027989894
38	0x3d2566a4	0.04038109
39	0xbdc6bc17	-0.09703844
40	0xbdceab90	-0.10091317
41	0x3d657a08	0.05602458
42	0x3dcb887e	0.09938143
43	0x3e0ef79d	0.13961644
44	0xbdcde7f8	-0.1005401
45	0xbe2713e4	-0.16316181
46	0x3e1908e1	0.14944793
47	0x3e137135	0.14398654
48	0xbdefa93f	-0.11702203
49	0xbe1b475c	-0.1516394
50	0x3d8aa39c	0.06769487
51	0xbd9d9ccb	-0.076959215
52	0xbce8c0a8	-0.028412178
53	0xbde3befa	-0.1112041
54	0x3d5be734	0.05368729
55	0x3e0dbe21	0.1384206
56	0xbe058f70	-0.13042998
57	0x3dfb58f2	0.12272824
58	0xbd840e28	-0.064480126
59	0x3da8770e	0.08225833
60	0x3df344be	0.11878346
61	0xbe0b2662	-0.1358886
62	0x3e177239	0.14789666
63	0x3e0a0d5b	0.13481657
64	0x3df44716	0.11927621
65	0x3dcbd04a	0.09951837
66	0xbe295fc8	-0.16540444
67	0xbc1577f0	-0.009122834
68	0xbc223ae0	-0.009901732
69	0xbd065300	-0.032794
70	0xbe2ff171	-0.17181946
71	0x3e0c6d07	0.13713466
72	0x3cd79ad0	0.026318938
73	0x3dba591e	0.09099029
74	0x3d34bb54	0.044123963
75	0x3d257cbc	0.04040216
76	0x3dc0e826	0.09419279
77	0x3e2ee801	0.1708069
78	0xbdc1694e	-0.094439134
79	0xbe051d40	-0.12999439
80	0xbd528d84	-0.05140449
81	0x3d36fbe8	0.04467383
82	0xbdb0acc8	-0.086267054
83	0xbe143ea3	-0.14477019
84	0x3d66be04	0.056333557
85	0x3d205ea8	0.03915277
86	0xbde4f09f	-0.11178707
87	0x3d2fc5a4	0.042913094
88	0xbe0c9784	-0.13729674
89	0xbdebfdd8	-0.11523026
90	0xbd956a58	-0.07295674
91	0x3e07d68f	0.13265441
92	0xbd81a91e	-0.06331085
93	0xbde62bc8	-0.11238819
94	0xbdd006da	-0.10157557
95	0x3de1b966	0.1102169
96	0xbd12790c	-0.03575997
97	0x3c0f3590	0.008740798
98	0xbddc260e	-0.10749446
99	0xbc8d8178	-0.01727365
100	0xbe24f6d9	-0.1610979
101	0xbc4e9370	-0.012608394
102	0xbbe62500	-0.0070234537
103	0x3d4a5ef8	0.049406976
104	0xbe2b4ab8	-0.16727722
105	0x3e214c89	0.15751852
106	0xbced9d88	-0.02900578
107	0x3da5953e	0.08085106
108	0xbdedb74a	-0.11607225
109	0x3c3603e0	0.011109322
110	0xbe1e559a	-0.15462342
111	0x3d6f3e90	0.058409274
112	0xbdb02e2d	-0.08602557
113	0x3c39e5b0	0.011346266
114	0xbdba9091	-0.09109605
115	0xbe0c12ba	-0.13679019
116	0xbdf22d28	-0.11825019
117	0x3e206f21	0.15667392
118	0xbdc46a9b	-0.09590646
119	0x3de18b76	0.11012928
120	0xbe088af5	-0.13334258
121	0xbde58ad6	-0.112081215
122	0xbd8296d1	-0.06376422
123	0xbcada408	-0.02119638
124	0xbdd0fdbb	-0.10204645
125	0xbdd1f8b3	-0.10252514
126	0x3da2f2f6	0.07956497
127	0xbe28cbd2	-0.16484001
128	0x3e030bbd	0.12797447
129	0xbd568e8e	-0.052382044
130	0x3912f800	0.00014016032
131	0x3e152f83	0.14568906
132	0xbe1116b4	-0.14168817
133	0xbe327601	-0.17427827
134	0x3de072c6	0.10959391
135	0xbdf6e1b0	-0.12054765
136	0xbe081aa8	-0.13291419
137	0x3cf94020	0.030426085
138	0xbd063d84	-0.03277351
139	0xbc94ba60	-0.018155277
140	0xbdaa83d5	-0.08325926
141	0x3d95bb90	0.07311165
142	0xbd8b4510	-0.06800282
143	0xbd795db0	-0.060880363
144	0x3e2ed9df	0.17075299
145	0xbe21b580	-0.15791893
146	0xbcd88048	-0.026428357
147	0x3e1bc5cb	0.15212171
148	0x3c9c4248	0.019074574
149	0x3da47d96	0.08031766
150	0xbd5de9b6	-0.054177962
151	0xbe06c956	-0.13162741
152	0xbe095dac	-0.13414639
153	0xbdc70ce3	-0.09719255
154	0x3ce27b08	0.027646556
155	0x3e077d6b	0.13231437
156	0x3d776640	0.060400248
157	0x3cf84628	0.03030689
158	0x3e2c6337	0.16834722
159	0xbe12c594	-0.14333183
160	0xbd83a579	-0.06428046
161	0xbe0c8748	-0.1372348
162	0xbe285371	-0.1643808
163	0xbc4b67e0	-0.012414902
164	0xbdd747bc	-0.10511729
165	0xbdc02a9a	-0.093831256
166	0xbda8b21d	-0.082370974
167	0xbc6e1060	-0.014530271
168	0x3d1d5518	0.03841123
169	0x3d818530	0.063242316
170	0xbdcbdd79	-0.09954352
171	0x3afa3580	0.001908943
172	0xbc41a6c0	-0.011819541
173	0x3e0bde5f	0.13659047
174	0xbdf25066	-0.11831741
175	0x3da50b76	0.080588266
176	0xbdc1788b	-0.0944682
177	0xbe190a5f	-0.14945363
178	0x3d952668	0.07282716
179	0xbd831b90	-0.064017415
180	0xbdab53e9	-0.08365614
181	0xbe2d7907	-0.169407
182	0x3dde3eea	0.10851844
183	0x3da56d72	0.08077516
184	0x3d01855c	0.031621322
185	0xbd097d68	-0.033566862
186	0x3c985dc8	0.018599406
187	0xbd459464	-0.04823722
188	0x3e190a11	0.14945246
189	0x3e03c579	0.12868299
190	0x3d40e080	0.0470891
191	0xbe28103b	-0.16412441
192	0x3dc228d6	0.09480445
193	0xbe097632	-0.13423994
194	0x3e1e01b9	0.15430345
195	0xbcea7790	-0.028621465
196	0xbcc92280	-0.024552584
197	0xbc40dd30	-0.011771485
198	0x3e041c73	0.12901478
199	0x3dcd164e	0.1001402
200	0xbcf90b18	-0.030400798
201	0xbd7608e0	-0.060067058
202	0x3d2a81c4	0.04162766
203	0x3d90fb12	0.07079138
204	0xbe14493a	-0.14481059
205	0xbe089d1d	-0.13341184
206	0x3e34257b	0.17592423
207	0xbe0bc3ec	-0.13648957
208	0xbd1a2fc4	-0.03764321
209	0xbdc2768f	-0.094952695
210	0x3e11df0d	0.14245243
211	0xbd236190	-0.039887965
212	0x3e05d565	0.13069685
213	0x3e2a10d9	0.1660799
214	0x3e263f05	0.16234978
215	0xbd187a90	-0.03722626
216	0xbe2c5715	-0.16830094
217	0xbd847557	-0.06467693
218	0x3d38f254	0.045152977
219	0x3b4a2a80	0.0030848086
220	0x3caa5c30	0.020795912
221	0xbc379070	-0.01120387
222	0x3d6864c4	0.056736723
223	0x3dcd3d86	0.100215
224	0xbd22c4d0	-0.039738476
225	0x3dcd0f26	0.10012655
226	0x3d881ad2	0.066457406
227	0x3d22e188	0.039765865
228	0x3d5685c8	0.052373677
229	0x3e1ba8af	0.15201066
230	0xbcca0670	-0.024661273
231	0xbdc9a912	-0.09846701
232	0xbd1690e4	-0.036759272
233	0x3e1faf7f	0.1559429
234	0x3e01365b	0.12618391
235	0xbdb2ed07	-0.08736616
236	0xbcf74d18	-0.030188128
237	0xbc01a160	-0.00791201
238	0xbc1d10f0	-0.009586558
239	0xbe1af8b3	-0.15133934
240	0x3c9d3358	0.019189522
241	0xbdd06085	-0.1017466
242	0x3c758a70	0.014986619
243	0xbe2c1777	-0.16805826
244	0xbd8defa7	-0.06930476
245	0xbd4757c4	-0.048667684
246	0xbd2fcd28	-0.04292026
247	0x3dae63be	0.08515118
248	0x3d00d8d0	0.03145677
249	0xbafb3b00	-0.0019167364
250	0xbd3995ec	-0.045308992
251	0xbde69127	-0.11258154
252	0x3b015580	0.00197348
253	0xbd8925d4	-0.06696668
254	0x3e1f49b5	0.15555461
255	0x3cb98700	0.02264738

decoder_layer.self_attn.out_proj.bias f4 [32]
0	0x00000000	0.0
1	0x00000000	0.0
2	0x00000000	0.0
3	0x00000000	0.0
4	0x00000000	0.0
5	0x00000000	0.0
6	0x00000000	0.0
7	0x00000000	0.0
8	0x00000000	0.0
9	0x00000000	0.0
10	0x00000000	0.0
11	0x00000000	0.0
12	0x00000000	0.0
13	0x00000000	0.0
14	0x00000000	0.0
15	0x00000000	0.0
16	0x00000000	0.0
17	0x00000000	0.0
18	0x00000000	0.0
19	0x00000000	0.0
20	0x00000000	0.0
21	0x00000000	0.0
22	0x00000000	0.0
23	0x00000000	0.0
24	0x00000000	0.0
25	0x00000000	0.0
26	0x00000000	0.0
27	0x00000000	0.0
28	0x00000000	0.0
29	0x00000000	0.0
30	0x00000000	0.0
31	0x00000000	0.0

decoder_layer.multihead_attn.in_proj_weight f4 [96, 32]
0	0xbdefd091	-0.11709703
1	0xbdba6ae2	-0.091024175
2	0xbe03d9ec	-0.128761
3	0xbcfd0660	-0.030886829
4	0xbdfd65ac	-0.12372908
5	0x3e0f17dd	0.13973947
6	0xbe26dbc0	-0.16294765
7	0xbe1d14b4	-0.15339929
8	0x3d76fe3c	0.06030105
9	0xbdc1d2f7	-0.094640665
10	0xbe09ecdb	-0.1346926
11	0x3da1651e	0.07880615
12	0xbd73a520	-0.059483647
13	0x3d8cb5aa	0.06870587
14	0x3dbce7ba	0.09223886
15	0x3dc2a1c2	0.09503509
16	0xbdce206a	-0.10064776
17	0x3da832b2	0.08212794
18	0xbded736b	-0.1159428
19	0x3dc2422a	0.09485276
20	0x3e32ab81	0.17448236
21	0xbd6f2d6c	-0.058392927
22	0xbdb8bcb6	-0.09020369
23	0xbe0f9590	-0.14021897
24	0x3e0e6a2d	0.1390769
25	0xbda18de2	-0.0788839
26	0xbc948a88	-0.018132463
27	0x3e38f499	0.18062057
28	0xbe5c643a	-0.21522608
29	0x3d969b1a	0.07353802
30	0x3e2760a7	0.16345464
31	0xbe088339	-0.13331307
32	0xbe0334d8	-0.12813127
33	0xbda2391c	-0.07921049
34	0x3d84ed3e	0.06490563
35	0x3dd0b612	0.10190977
36	0x3ce604b0	0.028078407
37	0x3e402aeb	0.18766372
38	0x3d3aef8c	0.045638606
39	0x3e4cdc31	0.20005871
40	0x3e419bd9	0.18907107
41	0xbd5096c0	-0.050925016
42	0xbc89e5c0	-0.016833186
43	0x3e30f60b	0.17281358
44	0xbe42fe74	-0.19042379
45	0xbe36960c	-0.17830676
46	0x3e0cb983	0.13742642
47	0xbd8db98e	-0.069201574
48	0x3c52ea30	0.012873217
49	0xbe0a111e	-0.13483092
50	0x3e50dddb	0.20397131
51	0xbe54761a	-0.20748177
52	0xbd86169c	-0.06547281
53	0xbde83306	-0.11337857
54	0x3e4d1b97	0.20030056
55	0x3e1631f7	0.14667498
56	0x3d39cb44	0.045359865
57	0xbd85b8d2	-0.06529392
58	0x3d010a84	0.03150417
59	0x3de05d4a	0.109552935
60	0x3e12680f	0.14297508
61	0xbc49f410	-0.012326255
62	0xbdd236f4	-0.10264388
63	0xbd73db38	-0.059535235
64	0xbe2ea8c8	-0.17056572
65	0xbe43a002	-0.19104007
66	0x3e0ea62d	0.13930579
67	0x3e587a8d	0.211405
68	0xbc40f100	-0.011776209
69	0x3e29ba3d	0.1657495
70	0x3e3bdc75	0.18345816
71	0xbe557d1e	-0.2084851
72	0x3dce60ea	0.10077079
73	0xbba32000	-0.00497818
74	0xbe0b6907	-0.13614284
75	0xbe57b8c8	-0.21066582
76	0xbdcf24cb	-0.101144396
77	0xbcca8cb8	-0.024725303
78	0x3b1b7a80	0.0023724139
79	0x3dc61552	0.09672035
80	0x3d63fea4	0.055662766
81	0xbb991f20	-0.0046729
82	0x3d8886da	0.06666346
83	0xbe2654b7	-0.16243254
84	0x3c5ae170	0.013359413
85	0x3e1034d3	0.14082651
86	0xbe3fd724	-0.18734413
87	0xbe2ec280	-0.17066383
88	0xbd840b4c	-0.06447467
89	0x3d547fa4	0.05187954
90	0x3d9844aa	0.07434972
91	0x3bab78a0	0.0052328855
92	0x3e218ce1	0.15776397
93	0xbe4ab679	-0.1979617
94	0xbe0f6318	-0.14002645
95	0x3d6f1c04	0.058376327
96	0xbdf343e6	-0.11878185
97	0x3e179b19	0.14805259
98	0x3e1fadb3	0.15593605
99	0x3e4f0791	0.2021773
100	0xbd877cd8	-0.06615609
101	0xbe112783	-0.14175229
102	0x3e025d57	0.12730919
103	0x3dc187e6	0.09449749
104	0xbd26fee8	-0.04077044
105	0xbde25d4a	-0.1105295
106	0x3c3ed750	0.011648014
107	0xbdc08f08	-0.09402281
108	0xbc5812e0	-0.013188094
109	0xbe029231	-0.1275108
110	0xbe2bc995	-0.16776116
111	0xbe471c0b	-0.19444291
112	0xbcc12548	-0.023577347
113	0xbd8b85ec	-0.06812653
114	0xbe0dcb7d	-0.13847156
115	0x3e52220b	0.20520799
116	0xbe28801a	-0.16455117
117	0x3d39121c	0.045183286
118	0xbe5b99b1	-0.21445347
119	0xbca6af80	-0.020347357
120	0xbddee42e	-0.108833656
121	0x3de48022	0.11157252
122	0x3d6c05cc	0.057622716
123	0xbe558c89	-0.20854391
124	0x3e129611	0.14315058
125	0xbd0891f4	-0.033342317
126	0x3e3359ad	0.17514677
127	0x3e168f57	0.14703117
128	0xbd2a0c88	-0.041515857
129	0xbdb9b234	-0.09067193
130	0xbe3bbe53	-0.18334322
131	0xbc8f18c8	-0.017467871
132	0xbd85b73c	-0.0652909
133	0x3e3c0759	0.18362178
134	0xbdda3207	-0.10654073
135	0xbe3dfc6f	-0.18553327
136	0x3dcfa522	0.101389185
137	0xbdbc1915	-0.091844715
138	0x3de9d442	0.11417438
139	0x3e42c031	0.19018628
140	0xbda2daca	-0.07951887
141	0x3cdf6e70	0.02727434
142	0x3e255ee5	0.1614948
143	0xbd086ea4	-0.03330864
144	0x3e1faacf	0.15592502
145	0x3d3bfd6c	0.04589598
146	0xbb961880	-0.0045805573
147	0xbce030c0	-0.027366996
148	0x3dd2114a	0.10257204
149	0xbe3152ce	-0.17316744
150	0xbd8047f0	-0.06263721
151	0xbdcfbf72	-0.10143937
152	0x3de0018a	0.109377936
153	0x3df77f56	0.12084834
154	0x3e535ca3	0.20640807
155	0xbe3c23de	-0.18373057
156	0xbe2e6ccc	-0.1703369
157	0xbd5161e4	-0.051118746
158	0x3de77336	0.113012716
159	0x3e41f7dd	0.18942209
160	0xbe55ea30	-0.20890117
161	0x3da2bdba	0.07946344
162	0x3d20988c	0.03920798
163	0xbd1ec2e0	-0.038760066
164	0xbe08a11a	-0.13342705
165	0xbd98a59c	-0.074534625
166	0xbcb2dae0	-0.021832883
167	0xbe238302	-0.15967944
168	0xbe34c33a	-0.17652598
169	0xbddb732d	-0.107153274
170	0xbe31e90a	-0.17374054
171	0x3d8889b2	0.06666888
172	0x3dc9a1ee	0.09845339
173	0x3de15a6e	0.11003576
174	0x3dfc20be	0.123109326
175	0x3d049cd0	0.03237611
176	0xbb466500	-0.0030272603
177	0x3e3d5c69	0.18492283
178	0x3e005d4b	0.12535588
179	0x3d638184	0.055543438
180	0xbcd571e0	-0.026055276
181	0xbe1a8f26	-0.1509367
182	0x3e3431b7	0.1759709
183	0x3d87255a	0.06598921
184	0xbda73522	-0.08164431
185	0xbc1afe10	-0.009459987
186	0x3e333b6d	0.17503138
187	0xbe5bbab2	-0.21457937
188	0x3d7268bc	0.059181914
189	0x3dae76ca	0.08518751
190	0xbd94f964	-0.0727413
191	0x3d82b90e	0.06382953
192	0xbdecdb33	-0.115652464
193	0xbdaf2632	-0.08552207
194	0xbbfa65a0	-0.007641509
195	0x3c88e4a0	0.01671058
196	0xbd1be1dc	-0.038057193
197	0xbdce9b4c	-0.10088214
198	0x3deec056	0.11657779
199	0xbd813788	-0.0630942
200	0xbddb2c41	-0.107018
201	0x3d978082	0.07397558
202	0xbd706fd4	-0.058700398
203	0xbcd36fa8	-0.025810078
204	0xbe482aed	-0.19547625
205	0xbe167ad0	-0.14695287
206	0x3dfee3be	0.12445782
207	0x3cbd79d0	0.023129374
208	0xbd92511e	-0.07144378
209	0x3bde6a20	0.0067875534
210	0xbe219418	-0.1577915
211	0xbd82a884	-0.06379798
212	0x3de4bdea	0.11169036
213	0x3d3aed5c	0.04563652
214	0xbdfd99b4	-0.12382832
215	0x3e0aad59	0.1354269
216	0x3e2dee15	0.16985352
217	0xbdc1b3fa	-0.09458156
218	0xbdc4d209	-0.096103735
219	0x3e1b948b	0.15193383
220	0xbdb42740	-0.08796549
221	0x3e10371b	0.14083521
222	0xbe32e640	-0.17470646
223	0xbdac825c	-0.084233016
224	0xbceb6898	-0.028736398
225	0xbd82dfc4	-0.06390336
226	0xbd0c4c14	-0.03425224
227	0xbe3db99f	-0.1852784
228	0xbcde4ed8	-0.027137205
229	0x3e116945	0.14200313
230	0x3e433ca1	0.19066097
231	0x3e56c47b	0.20973389
232	0xbdaad36a	-0.08341105
233	0xbda6c018	-0.08142108
234	0xbe0a3b10	-0.13499093
235	0xbd796900	-0.06089115
236	0x3d2fe73c	0.04294513
237	0x3e3b81c5	0.18311222
238	0xbde9b3b0	-0.11411226
239	0x3e54fe23	0.2080007
240	0xbdf15fea	-0.11785872
241	0xbd2044f4	-0.03912826
242	0xbd866b7a	-0.06563468
243	0xbdf99147	-0.121859126
244	0x3e198d71	0.14995362
245	0xbde87573	-0.11350527
246	0x3d098adc	0.033579692
247	0xbdd3f7de	-0.10350011
248	0xbe4759aa	-0.19467798
249	0x3e111bad	0.14170714
250	0xbbb4c000	-0.0055160522
251	0xbe456df2	-0.19280222
252	0xbdb0cf12	-0.086332455
253	0x3ba0a6e0	0.0049027056
254	0x3e12080b	0.1426088
255	0x3d8d9012	0.06912245

decoder_layer.multihead_attn.in_proj_bias f4 [96]
0	0x00000000	0.0
1	0x00000000	0.0
2	0x00000000	0.0
3	0x00000000	0.0
4	0x00000000	0.0
5	0x00000000	0.0
6	0x00000000	0.0
7	0x00000000	0.0
8	0x00000000	0.0
9	0x00000000	0.0
10	0x00000000	0.0
11	0x00000000	0.0
12	0x00000000	0.0
13	0x00000000	0.0
14	0x00000000	0.0
15	0x00000000	0.0
16	0x00000000	0.0
17	0x00000000	0.0
18	0x00000000	0.0
19	0x00000000	0.0
20	0x00000000	0.0
21	0x00000000	0.0
22	0x00000000	0.0
23	0x00000000	0.0
24	0x00000000	0.0
25	0x00000000	0.0
26	0x00000000	0.0
27	0x00000000	0.0
28	0x00000000	0.0
29	0x00000000	0.0
30	0x00000000	0.0
31	0x00000000	0.0
32	0x00000000	0.0
33	0x00000000	0.0
34	0x00000000	0.0
35	0x00000000	0.0
36	0x00000000	0.0
37	0x00000000	0.0
38	0x00000000	0.0
39	0x00000000	0.0
40	0x00000000	0.0
41	0x00000000	0.0
42	0x00000000	0.0
43	0x00000000	0.0
44	0x00000000	0.0
45	0x00000000	0.0
46	0x00000000	0.0
47	0x00000000	0.0
48	0x00000000	0.0
49	0x00000000	0.0
50	0x00000000	0.0
51	0x00000000	0.0
52	0x00000000	0.0
53	0x00000000	0.0
54	0x00000000	0.0
55	0x00000000	0.0
56	0x00000000	0.0
57	0x00000000	0.0
58	0x00000000	0.0
59	0x00000000	0.0
60	0x00000000	0.0
61	0x00000000	0.0
62	0x00000000	0.0
63	0x00000000	0.0
64	0x00000000	0.0
65	0x00000000	0.0
66	0x00000000	0.0
67	0x00000000	0.0
68	0x00000000	0.0
69	0x00000000	0.0
70	0x00000000	0.0
71	0x00000000	0.0
72	0x00000000	0.0
73	0x00000000	0.0
74	0x00000000	0.0
75	0x00000000	0.0
76	0x00000000	0.0
77	0x00000000	0.0
78	0x00000000	0.0
79	0x00000000	0.0
80	0x00000000	0.0
81	0x00000000	0.0
82	0x00000000	0.0
83	0x00000000	0.0
84	0x00000000	0.0
85	0x00000000	0.0
86	0x00000000	0.0
87	0x00000000	0.0
88	0x00000000	0.0
89	0x00000000	0.0
90	0x00000000	0.0
91	0x00000000	0.0
92	0x00000000	0.0
93	0x00000000	0.0
94	0x00000000	0.0
95	0x00000000	0.0

decoder_layer.multihead_attn.out_proj.weight f4 [32, 32]
0	0xbd792aaa	-0.060831703
1	0x3e0a9a17	0.13535343
2	0xbd199344	-0.03749396
3	0x3d29b5a8	0.041433007
4	0x3d07436c	0.033023283
5	0x3d070ef4	0.032973245
6	0x3e11d0b1	0.14239766
7	0x3d9744a2	0.073861375
8	0xbdf7b73c	-0.12095496
9	0x3da28dc2	0.079371944
10	0xbd7f57ee	-0.062339716
11	0xbe0436e8	-0.1291157
12	0xbdef7574	-0.11692324
13	0xbc84ce00	-0.01621151
14	0x3d98ae76	0.07455151
15	0xbc7b2eb0	-0.015330955
16	0xbde9ef48	-0.114225924
17	0x3dcb125a	0.0991561
18	0xbdf6378e	-0.12022315
19	0x3e02dc6b	0.12779395
20	0xbd2cc598	-0.042180628
21	0x3c891f90	0.016738683
22	0x3d0608f0	0.032723367
23	0xbe3474d9	-0.17622699
24	0x3da77816	0.081772014
25	0x3e0d297b	0.13785355
26	0x3e341c7b	0.1758899
27	0xbda78459	-0.0817954
28	0xbcaa20d0	-0.0207676
29	0x3e28324f	0.16425441
30	0x3db65452	0.089028016
31	0x3e04e6d5	0.1297868
32	0xbdba91ce	-0.09109841
33	0x3d31ab58	0.043376297
34	0x3e20f4f7	0.15718447
35	0x3dca539e	0.0987923
36	0xbd80931a	-0.062780574
37	0x3da0e3e2	0.07855965
38	0xbdc38a2d	-0.09547839
39	0x3cf18578	0.029482588
40	0xbcc8bb78	-0.024503455
41	0x3d910008	0.07080084
42	0x3d236590	0.03989178
43	0xbe03771a	-0.12838402
44	0xbe21c8a7	-0.15799199
45	0xbd00b78c	-0.031425044
46	0x3d8e7e60	0.06957698
47	0x3ddc344e	0.10752164
48	0xbe30d195	-0.17267449
49	0x3e31e515	0.17372544
50	0xbe0a7b8c	-0.13523692
51	0x3dd6155e	0.10453294
52	0x3d985776	0.07438557
53	0x3de08c76	0.10964291
54	0x3e09e19d	0.13464971
55	0x3e2d6b31	0.16935422
56	0x3deb3de2	0.114864126
57	0xbdb15964	-0.08659628
58	0x3db4d816	0.088302776
59	0xbe1653db	-0.14680426
60	0x3d7b5db4	0.06136866
61	0x3de91136	0.11380236
62	0xbcf02578	-0.029314741
63	0x3d7ab244	0.061205164
64	0x3bb5f280	0.00555259
65	0x3c904118	0.017609164
66	0xbcf23958	-0.02956836
67	0x3d9c7606	0.07639699
68	0x3d681f2c	0.056670353
69	0xbe2b0c9d	-0.1670403
70	0x3e1d9631	0.15389325
71	0xbdb33905	-0.0875111
72	0xbe2da435	-0.16957171
73	0x3e1a7f13	0.15087537
74	0x3da125ba	0.07868524
75	0x3e1782a7	0.14795934
76	0x3d97156a	0.07377131
77	0xbd14fe1c	-0.03637515
78	0x3cedb8c8	0.029018775
79	0xbc428b30	-0.011874005
80	0xbe0ce99f	-0.13760994
81	0x3da8f1f6	0.082492754
82	0x3d883460	0.06650615
83	0x3db10a76	0.086445734
84	0xbccfc918	-0.025364444
85	0x3dfe2162	0.12408711
86	0x3d5de544	0.054173723
87	0x3ddac4e2	0.10682084
88	0xbd5ccb76	-0.053904973
89	0x3c59a040	0.0132828355
90	0xbd1c9324	-0.03822626
91	0xbd0f891c	-0.035042867
92	0xbc62afa0	-0.013835818
93	0xbe07f134	-0.13275605
94	0x3d223704	0.03960325
95	0x3dae6dda	0.08517046
96	0xbda3accb	-0.07991942
97	0xbcd38ed0	-0.025824934
98	0xbda1f4e8	-0.0790804
99	0x3e11e775	0.1424845
100	0x3e042105	0.12903221
101	0xbd4a7eec	-0.04943745
102	0x3e1ed5eb	0.1551129
103	0x3d87bcc4	0.06627801
104	0x3e26e5bb	0.16298573
105	0x3e2cf0a9	0.1688868
106	0xbde9955e	-0.11405443
107	0xbe11090b	-0.14163606
108	0x3e20702d	0.15667792
109	0xbd08daac	-0.033411667
110	0xbd4d0818	-0.050056547
111	0x3d1f17a4	0.038840905
112	0x3d24bd6c	0.04021971
113	0xbdd0783e	-0.101791844
114	0x3da7d08e	0.081940755
115	0x3d6bc61c	0.05756198
116	0x3db1728a	0.08664425
117	0xbdcefaae	-0.10106407
118	0xbc1be9d0	-0.009516194
119	0xbd676afa	-0.056498505
120	0x3e24fc7b	0.16111939
121	0x3e0d7b41	0.13816549
122	0xbcc9cac0	-0.024632812
123	0xbd32b568	-0.043630034
124	0x3e1ba297	0.15198742
125	0x39bcda00	0.00036020577
126	0x3e187a0f	0.14890312
127	0xbe07e937	-0.13272558
128	0x3dafa8ea	0.0857714
129	0xbd398324	-0.04529108
130	0x3e207d85	0.15672882
131	0xbcf22e40	-0.02956307
132	0xbd0c42bc	-0.03424333
133	0x3cc4db00	0.024030209
134	0xbe0bc593	-0.13649587
135	0x3e322109	0.17395414
136	0x3df6ef3a	0.120573476
137	0xbdc2f4bc	-0.09519336
138	0x3c07c060	0.008285612
139	0x3cf7e9f8	0.030262932
140	0x3ca3e3e0	0.02000612
141	0xbcfbaec8	-0.03072299
142	0x3e085607	0.13314067
143	0xbdec47c5	-0.115371265
144	0x3dc566d6	0.09638755
145	0xbd61fc46	-0.055172227
146	0x3b112140	0.0022145063
147	0x3c842bd0	0.016134173
148	0x3df4736e	0.11936079
149	0x3c9ac990	0.01889494
150	0x3e09cd1b	0.13457148
151	0x3e013c17	0.12620579
152	0xbd9954e4	-0.07486895
153	0xbe169e84	-0.14708906
154	0xbd56daec	-0.052454874
155	0xbd163144	-0.036668077
156	0x3dd8592e	0.10563885
157	0x3e102dd5	0.14079984
158	0xbc77b2a0	-0.015118271
159	0xbd90a6d1	-0.07063068
160	0xbe2532aa	-0.16132608
161	0xbda659dc	-0.08122608
162	0xbdf350a0	-0.118806124
163	0x3e1cc99d	0.15311284
164	0xbd034374	-0.03204675
165	0xbe146813	-0.14492826
166	0xbe1167c9	-0.14199747
167	0x3dd327e6	0.103103444
168	0x3dfb18f6	0.1226062
169	0x3dec20c2	0.115296856
170	0xbd7159ba	-0.05892346
171	0xbbd92c40	-0.0066275895
172	0x3d0a7b00	0.03380871
173	0x3db775be	0.089580044
174	0xbdb6806f	-0.089112155
175	0xbde115ad	-0.109904625
176	0x3c5fd3b0	0.01366131
177	0xbe34d51c	-0.1765942
178	0xbdfe9791	-0.12431253
179	0xbd61f764	-0.05516757
180	0xbc4913f0	-0.01227282
181	0xbde57bc7	-0.11205249
182	0xbe11d2e4	-0.14240605
183	0xbd76058a	-0.060063876
184	0xbdb52b06	-0.08846097
185	0x3d4a24a8	0.049351364
186	0x3d07e400	0.033176422
187	0xbd2188c0	-0.039437056
188	0xbdc191ae	-0.09451614
189	0x3c39f190	0.011349097
190	0xbd0aa09c	-0.033844575
191	0xbce7fa10	-0.028317481
192	0x3ce14268	0.027497485
193	0x3e0c4de1	0.13701583
194	0xbdad182c	-0.08451876
195	0x3d97ac0e	0.07405864
196	0xbdc6c7cd	-0.09706078
197	0x3dd181a2	0.102298036
198	0x3b94ada0	0.0045372993
199	0x3ca4c370	0.020112723
200	0xbd896ddb	-0.067104064
201	0x3d756318	0.059908956
202	0xbc1f07f0	-0.009706482
203	0x3e1a5a33	0.15073471
204	0x3cfe2fd8	0.031028673
205	0xbcc84000	-0.02444458
206	0x3defc546	0.11707549
207	0x3e03064f	0.12795375
208	0x3bdd4440	0.006752521
209	0xbe037c7b	-0.12840454
210	0x3d94e958	0.07271069
211	0xbe0b083f	-0.13577364
212	0xbcd73f98	-0.026275441
213	0x3d90906c	0.07058796
214	0x3e2c398d	0.16818829
215	0xbd018a28	-0.031625897
216	0xbd91def9	-0.07122607
217	0xbe0d312d	-0.1378829
218	0x3ca526a0	0.02016002
219	0x3d7c3ac4	0.06157948
220	0x3e2957ff	0.16537474
221	0x3de41aea	0.11137946
222	0x3dcbe062	0.09954907
223	0xbe2c314d	-0.16815682
224	0xbe34b2f0	-0.17646384
225	0xbe0884b0	-0.13331866
226	0xbe001d4a	-0.12511173
227	0xbc2153c0	-0.009846628
228	0xbe2e57f9	-0.17025746
229	0x3dfe8d7a	0.12429328
230	0x3e0d0b0d	0.13773747
231	0xbdb62135	-0.088930525
232	0x3e2a12a9	0.16608681
233	0xbe059fc0	-0.13049221
234	0x3e2a3b13	0.16624098
235	0x3c739be0	0.014868706
236	0xbd85bc74	-0.06530085
237	0xbdab6dc1	-0.08370543
238	0xbc7111d0	-0.0147137195
239	0x3daa6422	0.0831988
240	0xbe0aca78	-0.13553798
241	0x3e0ce28f	0.137583
242	0x3e184c5b	0.14872877
243	0x3e19e16b	0.15027396
244	0x3df28762	0.118422285
245	0x3dd2ddce	0.10296212
246	0x3dec928a	0.115513876
247	0xbe11558e	-0.14192793
248	0xbdb19eff	-0.08672904
249	0x3b96ca60	0.0046017617
250	0x3dafd20a	0.08584984
251	0x3d00d33c	0.03145145
252	0x3e1f1581	0.15535547
253	0xbc8eba90	-0.017422944
254	0xbdd8fb80	-0.10594845
255	0x3db05242	0.086094394

decoder_layer.multihead_attn.out_proj.bias f4 [32]
0	0x00000000	0.0
1	0x00000000	0.0
2	0x00000000	0.0
3	0x00000000	0.0
4	0x00000000	0.0
5	0x00000000	0.0
6	0x00000000	0.0
7	0x00000000	0.0
8	0x00000000	0.0
9	0x00000000	0.0
10	0x00000000	0.0
11	0x00000000	0.0
12	0x00000000	0.0
13	0x00000000	0.0
14	0x00000000	0.0
15	0x00000000	0.0
16	0x00000000	0.0
17	0x00000000	0.0
18	0x00000000	0.0
19	0x00000000	0.0
20	0x00000000	0.0
21	0x00000000	0.0
22	0x00000000	0.0
23	0x00000000	0.0
24	0x00000000	0.0
25	0x00000000	0.0
26	0x00000000	0.0
27	0x00000000	0.0
28	0x00000000	0.0
29	0x00000000	0.0
30	0x00000000	0.0
31	0x00000000	0.0

decoder_layer.linear1.weight f4 [32, 32]
0	0x3c997c60	0.018736064
1	0xbdcd2313	-0.100164555
2	0xbc7ffc40	-0.015624106
3	0xbe2c1af3	-0.16807155
4	0xbe1f81cc	-0.15576857
5	0x3e095b0f	0.13413642
6	0x3dfe7446	0.12424521
7	0xbc193900	-0.009351969
8	0xbe2b6aee	-0.16740009
9	0x3e0f72f5	0.14008696
10	0xbe2ec5fb	-0.17067711
11	0xbda5dd55	-0.08098856
12	0xbe18aa9c	-0.14908832
13	0x3dd2e256	0.102970764
14	0x3d596ba0	0.053081155
15	0xbd72c3dc	-0.059268817
16	0xbce4ad80	-0.027914762
17	0x3de9bba2	0.11412741
18	0xbdded9f9	-0.10881419
19	0x3cfbef28	0.030753687
20	0x3e0d7ca5	0.1381708
21	0x3cf3b050	0.029747158
22	0xbe07226a	-0.13196722
23	0xbd9a6bbe	-0.075400814
24	0x3c2582e0	0.010102004
25	0xbc82caa8	-0.015965775
26	0xbde6a2b0	-0.11261499
27	0x3dda9986	0.106738135
28	0xbddb5c1c	-0.10710928
29	0x3d4693f0	0.048480928
30	0xbd1defd4	-0.038558796
31	0x3da8bb7e	0.08238886
32	0xbd8d8de0	-0.06911826
33	0x3def257a	0.1167707
34	0xbd8f3d2a	-0.06994088
35	0x3d9e88b2	0.07740916
36	0xbe2e72a9	-0.17035927
37	0xbe05be58	-0.13060892
38	0xbd9c4261	-0.07629848
39	0xbdddf388	-0.108374655
40	0x3de8d176	0.113680765
41	0x3e10db8b	0.14146249
42	0xbe061756	-0.1309484
43	0xbe119aa4	-0.14219147
44	0x3ca48200	0.02008152
45	0x3dfa885e	0.12233041
46	0x3cc1a208	0.023636833
47	0xbdfc4503	-0.123178504
48	0xbe1e6353	-0.15467577
49	0x3dc87f3e	0.097898945
50	0x3e1a2317	0.15052448
51	0x3aa3ad00	0.0012487471
52	0x3d14763c	0.03624557
53	0xbdaf9423	-0.08573177
54	0x3cd767b8	0.026294574
55	0x3e33ec0d	0.17570515
56	0xbe2297be	-0.15878198
57	0x3e0ebc8d	0.13939114
58	0xbb416ec0	-0.0029515475
59	0x3db33bfe	0.08751677
60	0x3ddcc2fa	0.10779376
61	0xbdeecbde	-0.11659978
62	0xbe01acfe	-0.12663648
63	0xbdca6e3b	-0.09884306
64	0x3ddd7da6	0.10814981
65	0xbb7a6b40	-0.0038210899
66	0xbd8ac571	-0.0677594
67	0xbaf0fa00	-0.0018385053
68	0x3e12fb1f	0.14353608
69	0xbdaf35a9	-0.08555157
70	0x3e2c288d	0.16812344
71	0x3e23d099	0.15997542
72	0xbd7bce26	-0.061475895
73	0x3e0c502b	0.13702457
74	0xbe2e53fc	-0.17024225
75	0x3dbdb0ee	0.09262262
76	0x3dce1d46	0.10064177
77	0x3df99f9e	0.12188648
78	0xbdc8df8e	-0.09808265
79	0x3e01607b	0.1263446
80	0x3d3867c0	0.04502082
81	0x3db4b1e6	0.08822994
82	0xbdf816ac	-0.12113699
83	0xbd803862	-0.06260754
84	0xbd80f5d5	-0.06296889
85	0x3de2a7be	0.110671505
86	0x3d84c736	0.06483309
87	0xbd09736c	-0.03355734
88	0xbe2e32ed	-0.17011614
89	0xbddc5796	-0.10758893
90	0x3e110945	0.14163692
91	0xbd23f194	-0.04002531
92	0x3e32cc43	0.17460732
93	0x3db7369e	0.08945964
94	0xbd96faf4	-0.07372084
95	0x3c847cb8	0.016172752
96	0xbcbb5530	-0.022867769
97	0x3db1124a	0.086460665
98	0x3d5a488c	0.053291842
99	0x3dd2a7e2	0.10285927
100	0xbd804497	-0.062630825
101	0xbdf8ac70	-0.12142265
102	0x3de712a2	0.11282851
103	0x3bf933c0	0.007605046
104	0x3db320b2	0.087464705
105	0xbc13caa0	-0.0090204775
106	0x3da324ae	0.079659805
107	0x3e2c8ae9	0.16849865
108	0x3e0eccef	0.13945363
109	0x3d6cd36c	0.057818815
110	0x3e156719	0.1459011
111	0xbd737e28	-0.059446484
112	0x3d8ced90	0.06881249
113	0xbd1b8314	-0.037966803
114	0x3d10a460	0.03531301
115	0x3e30c803	0.17263798
116	0x3d4fe088	0.05075124
117	0x3e1fb167	0.15595017
118	0x3e228167	0.15869676
119	0x3dec7f26	0.11547689
120	0xbd386a7c	-0.045023426
121	0x3de30046	0.110840365
122	0x3e0e92c7	0.13923179
123	0x3dcaf08a	0.099091604
124	0xbe112f82	-0.14178279
125	0xbde546db	-0.11195155
126	0x3ded1a32	0.11577262
127	0x3e145b79	0.14488019
128	0x3c309550	0.010777786
129	0xbe347573	-0.17622928
130	0x3cd7c5e8	0.026339486
131	0x3d7fa804	0.06241609
132	0x3d226a90	0.039652407
133	0x3d46fccc	0.04858093
134	0xbc992190	-0.018692762
135	0xbe25ba01	-0.16184236
136	0xbe040d52	-0.12895706
137	0xbe105639	-0.14095391
138	0x3e0c42d9	0.13697375
139	0x3b8889e0	0.0041668266
140	0x3d566e28	0.052351147
141	0xbe13ee6b	-0.14446418
142	0x3c80e158	0.015732452
143	0x3ca33dd8	0.01992695
144	0x3c580330	0.013184354
145	0xbe1fa96c	-0.15591973
146	0x3d49c2f4	0.049258187
147	0xbe3424c1	-0.17592146
148	0xbdf8a371	-0.12140549
149	0xbe0a59cd	-0.13510819
150	0xbcce0080	-0.025146723
151	0x3baee440	0.005337268
152	0xbd6fc780	-0.058539867
153	0xbd2d3908	-0.042290717
154	0x3e22d4f9	0.15901555
155	0x3db8c3ea	0.09021743
156	0x3c980fd0	0.018562227
157	0xbd995a15	-0.07487885
158	0x3e0d7d2d	0.13817282
159	0x3de351a6	0.110995576
160	0xbc9d9db8	-0.019240245
161	0x3daa77ea	0.08323653
162	0xbd7c553c	-0.061604723
163	0x3c918720	0.017764628
164	0xbcf4b178	-0.02986978
165	0xbe23d588	-0.15999424
166	0xbd02a5bc	-0.031896338
167	0xbdc61722	-0.09672381
168	0xbd00131c	-0.031268224
169	0xbe19babb	-0.15012638
170	0x3d0565d0	0.0325678
171	0xbe0a4148	-0.13501465
172	0xbdeeea86	-0.116658255
173	0x3e0a8ccd	0.13530274
174	0x3de6b916	0.11265771
175	0x36c08000	5.736947e-06
176	0xbdc69a3c	-0.096973866
177	0xbcee1450	-0.02906242
178	0x3e1099af	0.14121126
179	0xbe2a523b	-0.16632931
180	0xbdbe8ed2	-0.093045846
181	0x3e132e07	0.14373027
182	0xbde8f357	-0.113745384
183	0x3dc2dfa2	0.09515311
184	0xbe19c541	-0.15016653
185	0x3de5aafe	0.11214255
186	0x3d0c02cc	0.034182355
187	0xbe3395c2	-0.17537597
188	0x3dbd6862	0.09248425
189	0x3daad352	0.083410874
190	0x3e130c07	0.14360057
191	0xbe0d10c6	-0.1377593
192	0xbdae0d1b	-0.084985934
193	0x3cc000a0	0.023437798
194	0x3e0b6871	0.1361406
195	0xbde5d3ab	-0.11222013
196	0x3d3c5ac4	0.045985
197	0x3d5cb00c	0.05387883
198	0xbdeb3504	-0.11484721
199	0xbd990c4d	-0.07473049
200	0x3d3484c4	0.044071928
201	0xbd427d70	-0.047482908
202	0x3d23cd94	0.039990976
203	0x3daf31be	0.085544094
204	0x3cc1da40	0.02366364
205	0x3c76dd40	0.015067399
206	0x3e050f0f	0.12994026
207	0x3dcc089e	0.09962581
208	0x3dd1ea52	0.10249771
209	0x3d256aa8	0.04038492
210	0x3d2f601c	0.042816266
211	0x3dd668c6	0.10469203
212	0xbe10569c	-0.14095539
213	0x3e1a6039	0.15075769
214	0x3cdccaa8	0.026952103
215	0xbdd9437e	-0.10608576
216	0xbd5e3602	-0.054250725
217	0xbe139857	-0.14413582
218	0x3e125afb	0.14292519
219	0x3e265f21	0.16247226
220	0xbd2b9104	-0.041886345
221	0x3d6c5870	0.057701528
222	0x3df65e8a	0.12029751
223	0x3c199790	0.009374514
224	0xbd2c068c	-0.04199843
225	0x3d309084	0.04310657
226	0x3c2baab0	0.010477707
227	0x3c81e430	0.015855879
228	0x3df10f1a	0.117704585
229	0xbe3404b6	-0.17579922
230	0xbde08381	-0.109625824
231	0x3c190a20	0.009340793
232	0x3d046bf0	0.0323295
233	0x3e094acd	0.1340744
234	0x3d99e576	0.07514469
235	0xbdcabeb5	-0.09899656
236	0xbd2c0120	-0.04199326
237	0x3db40102	0.08789255
238	0x3d7fba64	0.062433615
239	0x3e1f950b	0.15584199
240	0xbdeb1940	-0.114794254
241	0x3e1e869b	0.15481035
242	0x3e30b3b1	0.17256047
243	0xbe0e2073	-0.13879566
244	0xbc1fe830	-0.009759948
245	0xbdedc67e	-0.11610125
246	0xbcf5a318	-0.029984996
247	0x3c623630	0.013806865
248	0xbdc12088	-0.09430033
249	0x3e22ab8b	0.15885751
250	0x3dcd75f2	0.10032262
251	0x3e0d9491	0.13826205
252	0xbc3cb590	-0.011517897
253	0xbe274367	-0.16334306
254	0xbe00c2b3	-0.12574272
255	0xbd904f15	-0.07046334

decoder_layer.linear1.bias f4 [32]
0	0xbe0f7aab	-0.14011638
1	0xbe29abc0	-0.16569424
2	0x3dd866f6	0.10566513
3	0xbc9dea50	-0.019276768
4	0x3e1ca0c9	0.1529571
5	0x3de1988e	0.110154256
6	0x3df8dfd2	0.12152065
7	0x3e1a29c1	0.1505499
8	0xbe0d7c0f	-0.13816856
9	0xbe06e2a4	-0.13172394
10	0x3df55dde	0.11980794
11	0xbd0414e0	-0.03224647
12	0x3e14292d	0.14468832
13	0xbe086cb9	-0.13322724
14	0xbe258e68	-0.16167605
15	0x3d373000	0.04472351
16	0xbd34ab1c	-0.044108495
17	0x3da17636	0.07883875
18	0x3d93560a	0.07194145
19	0xbc4e86c0	-0.012605369
20	0xbdee8481	-0.11646367
21	0x3da18e7e	0.07888506
22	0xbdd3084e	-0.10304318
23	0xbba21460	-0.0049462765
24	0xbd897c32	-0.067131415
25	0x3d80b22c	0.062839836
26	0x3e1317f7	0.1436461
27	0x3db2b602	0.087261215
28	0xbceb11d8	-0.028695032
29	0x3b985ce0	0.0046497434
30	0x3e105e8f	0.14098571
31	0xbe0bce22	-0.13652852

decoder_layer.linear2.weight f4 [32, 32]
0	0x3e2698bb	0.162692
1	0xbc6bccc0	-0.014392078
2	0x3ddf7656	0.10911243
3	0xbe1f989d	-0.15585561
4	0x3cc45748	0.0239674
5	0xbb8fe880	-0.00439173
6	0x3d67d5b0	0.056600273
7	0x3da577b6	0.08079474
8	0x3da9adb2	0.08285083
9	0x3a247500	0.0006273538
10	0xbab21d00	-0.0013588965
11	0x3daae302	0.083440796
12	0x3dcd06ce	0.100110635
13	0xbbfc95e0	-0.007708296
14	0xbe0ea70f	-0.13930915
15	0xbdd8cb63	-0.10585668
16	0x3c826380	0.015916586
17	0xbd3ef6e4	-0.046622172
18	0x3df8738a	0.12131412
19	0x3da3df6a	0.08001597
20	0xb831b000	-4.2364e-05
21	0x3db7024e	0.089359865
22	0xbdb3f744	-0.087873966
23	0xbd44b5e4	-0.048025027
24	0xbd50d210	-0.05098158
25	0xbdb12363	-0.086493276
26	0x3e196477	0.1497973
27	0x3d88581a	0.06657429
28	0x3c3949f0	0.011309132
29	0xbe0ff1cb	-0.1405708
30	0x3df5fb66	0.12010841
31	0xbd9e5a58	-0.077320755
32	0x3dc0bc0a	0.094108656
33	0xbbe48320	-0.006973639
34	0x3dd971b2	0.10617389
35	0xbe003446	-0.1251994
36	0x3db4bb46	0.08824782
37	0x3de4aff6	0.111663744
38	0xba399900	-0.0007079989
39	0xbdca8abc	-0.09889743
40	0xbdd61a3e	-0.10454224
41	0xbe13bfd4	-0.14428645
42	0xbe34f326	-0.17670879
43	0x3d83ca90	0.0643512
44	0xbcb1a7d0	-0.021686465
45	0x3c658ae0	0.014010161
46	0xbdb2aecb	-0.08724745
47	0xbd6d55d6	-0.057943188
48	0xbda0b376	-0.078467295
49	0x3ce6d9e0	0.028180063
50	0x3d40b558	0.047047943
51	0x3beee160	0.0072900504
52	0x3dadf126	0.08493261
53	0x3bed7980	0.00724715
54	0xbde1c222	-0.11023356
55	0xbda15ed0	-0.07879412
56	0xbd6c10b4	-0.057633117
57	0xbe1441a0	-0.14478159
58	0x3e2cf327	0.1688963
59	0xbe26e8cb	-0.16299741
60	0xbdb839cd	-0.089953996
61	0x3e1be439	0.15223779
62	0xba9d1600	-0.0011984706
63	0x3d4dbbb8	0.05022785
64	0xbda46351	-0.080267556
65	0x3e06cc93	0.13163976
66	0x3e2be80f	0.16787742
67	0x3c63e950	0.0139106065
68	0xbdc2639c	-0.09491655
69	0xbb18d940	-0.002332285
70	0x3dcb2e9a	0.09920998
71	0xbdae58d8	-0.08513039
72	0xbdf194c3	-0.11795952
73	0x3db63f26	0.08898763
74	0x3d8edb38	0.069754064
75	0xbd8a5717	-0.06754892
76	0x3d6fddb4	0.058561042
77	0x3e00340d	0.12519856
78	0x3dc087c2	0.09400894
79	0x3d9121f6	0.07086556
80	0xbcad0050	-0.021118313
81	0xbdd732d8	-0.105077446
82	0x3d4ef218	0.050523847
83	0x3e28cbad	0.16483946
84	0x3e330d05	0.17485435
85	0xbc0f8070	-0.008758649
86	0x3e0f540d	0.13996907
87	0x3c868be0	0.01642412
88	0x3b1154c0	0.002217576
89	0xbdfe2ad1	-0.1241051
90	0xbb2d0240	-0.0026399046
91	0x3dc8d4a2	0.098061815
92	0x3da5acaa	0.08089574
93	0x3dbea8ca	0.09309538
94	0xbd0bd938	-0.034142703
95	0x3dac3b92	0.084098
96	0xbcfe94c8	-0.031076804
97	0xbd396f58	-0.0452722
98	0x3dcb7092	0.099335805
99	0xbe1b2a08	-0.15152752
100	0x3e0106f7	0.12600313
101	0xbe01a4f4	-0.12660581
102	0xbdb6516f	-0.08902251
103	0xbc663af0	-0.014052138
104	0x3de3308e	0.110932454
105	0xbdbd80c0	-0.09253073
106	0x3e1a3bff	0.15061949
107	0x3d63fea0	0.05566275
108	0x3de21eea	0.11041053
109	0x3d7e0058	0.062012047
110	0xbdaa4d27	-0.08315497
111	0x3d0b41b8	0.03399822
112	0xbe0d0d86	-0.1377469
113	0x3dbf8b9a	0.09352799
114	0x3d1ad834	0.037803844
115	0x3dd5f82e	0.10447727
116	0x3ca51228	0.02015026
117	0x3b744d00	0.003727734
118	0xbe2acd83	-0.16679959
119	0xbddef54b	-0.1088663
120	0xbc26b1d0	-0.01017423
121	0x3cadca48	0.02121462
122	0x3d87a89c	0.066239566
123	0x3df828ee	0.12117182
124	0xbd24a9b4	-0.040200904
125	0x3e009b15	0.12559159
126	0x3d0678bc	0.032829985
127	0xbdae5182	-0.0851164
128	0x3ceea708	0.029132381
129	0xbc095920	-0.008383065
130	0xbdf1ce75	-0.11806957
131	0x3d035ff0	0.032073915
132	0x3d505494	0.05086191
133	0xbdc7b6c2	-0.09751655
134	0xbd424678	-0.047430485
135	0x3d359614	0.04433258
136	0x3cbeab00	0.023274899
137	0x3dd00c02	0.1015854
138	0xbd0f2410	-0.0349465
139	0xbe22766e	-0.1586549
140	0x3dfdff0e	0.124021634
141	0x3cfff900	0.031246662
142	0xbd2d10a4	-0.042252198
143	0x3da111ae	0.078647
144	0xbd8411cd	-0.06448708
145	0xbdc71a91	-0.09721864
146	0xbdd95669	-0.106121846
147	0x3d9dba4a	0.077015474
148	0xbe098fde	-0.13433787
149	0x3e1ac50b	0.15114228
150	0x3e2bdcc1	0.1678343
151	0x3d599ca4	0.0531279
152	0xbcfb3298	-0.030663773
153	0xbe08e4e8	-0.13368571
154	0xbc5bb2d0	-0.013409331
155	0x3cc61b48	0.02418293
156	0xbd2d2780	-0.042274
157	0x3daf2c4a	0.08553369
158	0xbe0c2f2c	-0.1368987
159	0xbc8f1880	-0.017467737
160	0xbe12cf9a	-0.14337006
161	0xbdad5660	-0.0846374
162	0x3d0d3664	0.0344757
163	0x3d8dc1e2	0.06921746
164	0x3d8c33a0	0.06845784
165	0x3e083d63	0.13304667
166	0xbcb5b100	-0.022179127
167	0xbdff62da	-0.12470026
168	0x3b7d5e80	0.0038661063
169	0x3dc411a6	0.09573679
170	0xbd9c68ba	-0.076371625
171	0xbbe3fb00	-0.0069574118
172	0xbe0a8c24	-0.13530022
173	0x3db872c2	0.09006263
174	0xbe004708	-0.12527096
175	0xbdfa7871	-0.122300036
176	0x3dda2da2	0.10653235
177	0x3e05579b	0.130217
178	0x3df3863a	0.11890836
179	0x3abbba00	0.00143224
180	0xbe12a267	-0.14319764
181	0xbe02249e	-0.12709281
182	0x3c402ec0	0.011729896
183	0xbcd3b710	-0.025844127
184	0x3e02c5ab	0.12770717
185	0xbdcfb419	-0.10141773
186	0xbdec55f4	-0.11539832
187	0xbdd64b4c	-0.104635805
188	0x3d9f9b2e	0.0779327
189	0x3e1400ff	0.14453505
190	0xbc39de70	-0.011344537
191	0xbc2f4fb0	-0.010700151
192	0xbde8c512	-0.11365713
193	0x3d96327e	0.07333849
194	0xbdcdfb4e	-0.10057698
195	0x3c48ff90	0.012267962
196	0x3ddd669e	0.10810588
197	0xbd507c80	-0.050899982
198	0x3dca8b8a	0.09889896
199	0xbdc2eae4	-0.09517458
200	0x3e2392cb	0.15973966
201	0x3cbaed68	0.022818282
202	0xbe08cec3	-0.13360123
203	0x3e2989d7	0.16556488
204	0x3da22302	0.079168335
205	0x3d7e05f0	0.06201738
206	0xbc819b58	-0.015821144
207	0xbcf61918	-0.030041263
208	0xbda0eb36	-0.07857363
209	0x3aeb3480	0.0017944723
210	0x3defa552	0.11701454
211	0x3dce6e8a	0.100796774
212	0x3e245fe5	0.16052206
213	0x3d814ee8	0.06313878
214	0xbdec0dfc	-0.11526105
215	0xbc1fd040	-0.0097542405
216	0xbd6df13a	-0.05809138
217	0xbc24f550	-0.010068253
218	0xbe2ea749	-0.17056002
219	0x3bbdb860	0.0057898015
220	0xbd7ddebc	-0.061979994
221	0x3ae98000	0.0017814636
222	0xbcf676d0	-0.030085951
223	0x3d8d7be6	0.069083974
224	0xbd327068	-0.04356423
225	0x3d2c9e28	0.042143017
226	0x3e06a4e9	0.13148846
227	0xbd0edef0	-0.03488058
228	0x3de10102	0.1098652
229	0xb9086800	-0.00013008714
230	0xbdc51083	-0.0962229
231	0xbe1b7fff	-0.15185545
232	0xbdadb7bf	-0.084823124
233	0x3d1e41a4	0.03863682
234	0xbdb3bd1b	-0.087763034
235	0xbdee4430	-0.116340995
236	0x3c5aab10	0.013346449
237	0x3c7e1400	0.015507698
238	0xbda1b167	-0.07895165
239	0x3c1485f0	0.009065136
240	0x3d8aa044	0.067688495
241	0xbe0b7ccf	-0.1362183
242	0xbe1ddd19	-0.15416373
243	0xbe122ae8	-0.1427418
244	0x3e2a0f47	0.1660739
245	0xbd40c6b4	-0.047064498
246	0xbe264322	-0.16236547
247	0xbe0b74e3	-0.13618807
248	0x3d53e9ac	0.05173652
249	0x3d2153f8	0.03938672
250	0x3d42f6d4	0.047598675
251	0x3dcb33c2	0.099219814
252	0xbddc5aca	-0.10759504
253	0x3dbe2f62	0.09286381
254	0x3df9bc8a	0.12194164
255	0x3e14d775	0.14535315

decoder_layer.linear2.bias f4 [32]
0	0xbd4bd13c	-0.04976009
1	0x3b0b34c0	0.0021241158
2	0xbd0cb378	-0.034350842
3	0x3d4d0394	0.05005224
4	0x3d47b508	0.04875663
5	0xbdf64062	-0.12023999
6	0x3e19b957	0.15012108
7	0xbde6fb5f	-0.11278414
8	0xbd122ab8	-0.03568527
9	0x3dac054a	0.08399446
10	0x3e32ff83	0.17480282
11	0xbda60b2f	-0.08107602
12	0x3e24777f	0.16061209
13	0xbd53e6b0	-0.051733673
14	0xbda9ae47	-0.08285194
15	0xbd3f036c	-0.046634123
16	0xbca59fa0	-0.020217717
17	0xbe02a500	-0.12758255
18	0x3daf5c9a	0.08562584
19	0x3d04ed74	0.032453015
20	0xbd0fea64	-0.03513564
21	0xbe10b3ea	-0.14131132
22	0x3d7cea3c	0.06174682
23	0x3ddf69f6	0.10908882
24	0x3d874d78	0.06606573
25	0xbdbb7655	-0.091534294
26	0x3d3a0ff4	0.04542537
27	0xbd270ef0	-0.04078573
28	0x3e00ddf3	0.12584667
29	0x3deecc1e	0.11660026
30	0xbe20c5be	-0.15700433
31	0x3d369b5c	0.044581756
